backend/gnn_simple_toxicity.pth (torch, 56288 bytes, 9 tensors)

conv1.bias f4 [64]
000000 da 16 3a bc 31 00 a2 bd 7c 1b 17 bc ee af e5 bc
       -0.011357987 -0.07910193 -0.009222861 -0.028037991
000010 4b 00 c2 bd ae f6 c7 3c 81 9b d6 b1 d5 6d 52 b9
       -0.09472712 0.024409618 -6.2458985e-09 -0.00020068076
000020 1f f4 c2 b8 ec 9a 51 bd 3e ba e8 bd 48 3a c2 bd
       -9.296112e-05 -0.051173136 -0.11363648 -0.094837725
000030 70 12 8a a9 4b cc 25 ba 85 a7 eb 3d fd a1 02 bc
       -6.1316295e-14 -0.00063246925 0.11506561 -0.007973191
000040 41 9c 66 3d eb cc 30 bc df c9 24 bd b2 fb d2 97
       0.05630136 -0.010791044 -0.04023158 -1.3634469e-24
000050 2a 08 45 3d 3b da 5a bb 98 65 fc 28 ef a7 00 bc
       0.04810349 -0.0033394236 2.802168e-14 -0.0078525385
000060 bf d7 bf bc 46 1d e6 3c 32 47 f9 3c c0 ca af a9
       -0.023418305 0.02809013 0.030429456 -7.806733e-14
000070 cc 6f c0 b7 b5 8d 70 bd ac 85 2f bd 3e 83 28 bc
       -2.2940243e-05 -0.058728892 -0.04285209 -0.010285197
000080 d7 85 0b 3d 4b 33 2b 3d 90 c5 b3 be 1c 95 fd 3d
       0.034063186 0.041796964 -0.35111666 0.12381956
000090 dc e7 a0 85 b9 58 d1 3c f5 64 61 a3 cd f7 62 92
       -1.51315e-35 0.025555002 -1.2218653e-17 -7.1618464e-28
0000a0 09 82 0b bc 10 fe 0a bd 9f 2d c5 bb e5 7a 34 bc
       -0.0085148895 -0.0339337 -0.0060174013 -0.011015628
0000b0 ca ba 01 bd cc 8d 7c bc 06 35 a7 ae bb 7c 23 bd
       -0.031672277 -0.015414666 -7.6036996e-11 -0.039913874
0000c0 7a 46 ae 89 08 44 c2 bc 84 9b 5e bd 4e 2b 07 ba
       -4.1955252e-33 -0.02371408 -0.05434753 -0.0005156294
0000d0 1b 62 bd bc be 4f f4 aa b0 34 36 bd 09 43 e3 82
       -0.02311807 -4.339844e-13 -0.04448384 -3.3393128e-37
0000e0 60 ca 34 3d d5 f2 42 b5 d5 af 7d bc 0e e1 27 bd
       0.044138312 -7.2624e-07 -0.015483816 -0.040986113
0000f0 cf 11 f5 3d 87 2d 2a 92 d9 97 7b bc 02 5c 17 3e
       0.11966287 -5.369866e-28 -0.0153560275 0.14781192

conv1.lin.weight f4 [64, 7]
000000 cb 10 24 3e 46 31 11 be 8d 03 07 bb 28 81 31 bd
       0.16022031 -0.14178953 -0.0020601482 -0.043336064
000010 66 a0 01 3e 23 f0 83 ba 27 c5 25 be c4 74 bb 3d
       0.12658843 -0.0010066073 -0.16188489 0.09153131
000020 dd 15 82 be 2d d1 2c bd e1 f2 24 3d 42 79 12 be
       -0.25407305 -0.042191673 0.04027069 -0.14304069
000030 3a 06 dc 39 55 1c d9 3d e6 1c 65 3c a1 48 99 bc
       0.0004196631 0.10601107 0.013983941 -0.01871139
000040 56 81 7e bb 98 54 68 bb b2 89 22 bc 71 6f 81 bb
       -0.0038834414 -0.0035450812 -0.009920524 -0.0039500524
000050 e0 a5 1b bd 54 0e bc 3d b5 ea 86 bd 6a b8 bc bd
       -0.037999988 0.091824204 -0.065877356 -0.09214862
000060 49 09 8d be 67 96 7f bd ba ba 3f 39 54 e1 b6 bd
       -0.27546147 -0.062399294 0.0001828474 -0.08929697
000070 69 60 af 3d bc b2 fb bd 0e b6 16 3d 19 8b 11 3c
       0.08563311 -0.1228995 0.036794715 0.008883261
000080 46 8d 24 bd 6f fa 09 bb 88 7c 22 be 0b 27 1c be
       -0.04017379 -0.002105381 -0.15867817 -0.15249269
000090 19 88 ba 3e 82 e7 16 3e ba ed 03 be ea ec 20 3e
       0.3643196 0.1473675 -0.12883654 0.15715376
0000a0 4e 96 da 37 8f fb 33 3e ec 07 9e 80 c9 c7 49 00
       2.6057616e-05 0.1757643 -1.451285e-38 6.77566e-39
0000b0 d9 ea 54 81 ac 7a 63 80 3e 97 d2 00 e6 0e 73 01
       -3.9106745e-38 -9.13572e-39 1.933971e-38 4.464274e-38
0000c0 55 57 16 00 33 5e 2a bc 0a 61 f6 37 34 0f 23 01
       2.05171e-39 -0.010398435 2.9370673e-05 2.994928e-38
0000d0 01 37 a6 32 65 ac f2 19 2a 06 1d 00 c4 0f 2a 3a
       1.9349956e-08 2.5091843e-23 2.66544e-39 0.00064873346
0000e0 ee 64 12 ba a4 ca b2 b3 a9 e1 74 81 8d d8 12 a4
       -0.00055844977 -8.325631e-08 -4.4977625e-38 -3.184213e-17
0000f0 02 a9 75 80 5a 28 5d 81 ea 95 f7 b6 59 95 d1 3d
       -1.0805382e-38 -4.062024e-38 -7.378626e-06 0.10233564
000100 b5 b9 d5 be a2 97 5e be 9f 41 ff bc 2f a0 a1 be
       -0.41743246 -0.21737531 -0.03115922 -0.31567523
000110 e1 15 2c 3b b4 00 18 3e b7 c7 07 3d 93 8a 52 3e
       0.0026258158 0.14844018 0.033149447 0.20560674
000120 72 18 aa 3d cb a7 61 be e4 53 e3 3e 77 7e 36 bb
       0.08305444 -0.22036664 0.4439994 -0.0027846375
000130 8d 0f 11 bd 70 1e 3d bc e2 16 9b 3e 9b 0b ae 3d
       -0.03541522 -0.011542901 0.30290896 0.08498307
000140 87 46 27 be ce 37 9f 3e e3 9c 12 b8 17 5d b3 3c
       -0.16335498 0.31097263 -3.4955225e-05 0.021894975
000150 4f bb bc b8 98 04 46 2e cf 99 86 80 ef 40 0c 2d
       -8.9994275e-05 4.5024068e-11 -1.2361133e-38 7.972497e-12
000160 4f 18 eb 00 4e b7 5c 00 5f 94 be b5 ec 10 4a 3a
       2.1590062e-38 8.514623e-39 -1.4199285e-06 0.000770821
000170 7d c9 80 bb 58 ca e7 b9 5c e7 9a 38 80 79 75 b9
       -0.0039302693 -0.0004421051 7.386386e-05 -0.00023410283
000180 52 38 bf b9 c2 4d 38 bb 08 84 00 bd 8c 77 20 bc
       -0.0003647232 -0.002812252 -0.031375915 -0.009794127
000190 0a a7 6c 32 90 bb f8 ba 73 6b d8 b8 0c ae 87 80
       1.3774988e-08 -0.0018976796 -0.000103196966 -1.2460228e-38
0001a0 8a db 8d bc 36 8d b5 3d e7 cb de be bb c5 51 be
       -0.017316598 0.088648245 -0.4351494 -0.20485584
0001b0 33 16 36 be d4 b8 92 be 5b 73 e1 39 1c 40 48 3e
       -0.17781906 -0.28656638 0.0004300129 0.19555706
0001c0 bb d0 b6 3d 27 f6 52 be 07 61 41 be e9 07 43 3e
       0.08926531 -0.20601712 -0.18884669 0.19045986
0001d0 2b d5 ca be 80 b8 d5 b9 0e 23 1e bd 99 3f f0 3d
       -0.3961576 -0.0004076399 -0.03860765 0.1173088
0001e0 a3 78 d5 3d 56 2b 8c 3e 0a d3 fb 3d 2a e0 e8 3e
       0.104234 0.27376813 0.12296112 0.45483524
0001f0 39 0b 9d 3a 76 ad b9 be c1 a3 d6 3b f9 76 8b be
       0.0011981494 -0.36265153 0.0065502827 -0.27239206
000200 8d b1 8b be f4 dd 2a 3c e5 e4 a3 be a1 27 3e bb
       -0.27283898 0.010428894 -0.3201057 -0.002901532
000210 f6 83 7c 3e 56 69 d6 b4 ae a0 74 9e 78 83 85 01
       0.24659714 -3.9937248e-07 -1.295048e-20 4.904513e-38
000220 a3 e8 0b 01 ee 4c 82 01 c3 53 96 01 67 c8 1a aa
       2.5697177e-38 4.7864847e-38 5.522149e-38 -1.3747476e-13
000230 d7 2e 2b bc ab f0 91 b9 c2 af ab 3a db f3 e8 ba
       -0.010448179 -0.00027835867 0.0013098645 -0.001777287
000240 76 62 bf 2a 21 13 12 81 80 d4 53 bb b6 2b 05 bd
       3.3996737e-13 -2.682969e-38 -0.0032322705 -0.03251239
000250 87 d8 99 3c 36 a9 83 b8 e9 01 60 bc 90 4e 49 39
       0.018780006 -6.278085e-05 -0.01367233 0.0001919812
000260 58 f4 79 01 94 ce 13 3d b9 e2 e7 ab 62 ab db aa
       4.5909385e-38 0.03608568 -1.6476465e-12 -3.9021135e-13
000270 f4 95 c6 27 bd 49 5e 28 32 58 99 a8 34 88 21 81
       5.511862e-15 1.2339465e-14 -1.7024661e-14 -2.966875e-38
000280 f9 aa 8f ab 1d 9c 05 be 0b 8a ba 3e 21 b8 85 3d
       -1.0208216e-12 -0.13047834 0.36433443 0.065292604
000290 6a e6 5f be 62 fa fa be de c7 a9 b8 ad 14 1f 3e
       -0.2186524 -0.49019152 -8.095776e-05 0.15535231
0002a0 5c c4 dc bc 6a 80 ca bc 5b d2 7f b1 85 42 01 bd
       -0.0269491 -0.024719436 -3.7226957e-09 -0.03155758
0002b0 60 9c 0d bb 7e a8 4e 16 0b 3f f0 bc b1 ff 40 3c
       -0.00216081 1.6693714e-25 -0.029326936 0.011779712
0002c0 31 93 a4 be 59 7a 1a be fe 2b d7 3c 6c 6e 05 be
       -0.32143548 -0.15085734 0.026266094 -0.13030404
0002d0 68 e9 01 3b cc 2c 4e 3e aa 2a b5 bb af d3 2b bb
       0.001982296 0.20134276 -0.0055287676 -0.0026218703
0002e0 4b 67 68 3a 41 e8 f5 b7 5c 88 85 81 c4 3c 50 81
       0.00088654895 -2.9314428e-05 -4.905215e-38 -3.8247164e-38
0002f0 f8 09 4d bb 31 62 2f b1 75 05 34 93 27 9c b0 01
       -0.003128646 -2.5521667e-09 -2.2721885e-27 6.4876257e-38
000300 e6 04 d3 80 42 fe 89 01 a4 0d b2 00 e5 cb 1c a3
       -1.9379047e-38 5.0690694e-38 1.6351612e-38 -8.499953e-18
000310 4d 5f 60 b3 e9 70 1a 9e fc 2e fa 80 ac 7d 8e 80
       -5.224074e-08 -8.176041e-21 -2.2975729e-38 -1.3085723e-38
000320 84 d0 22 01 a3 c2 71 80 d1 8e f5 ab 3a 3e 07 3e
       2.9904303e-38 -1.0447234e-38 -1.7447937e-12 0.13207331
000330 71 c5 85 be 30 d7 c2 bd ce 79 f3 bd 5d e3 73 be
       -0.26127198 -0.095137 -0.11888467 -0.23817201
000340 77 88 41 b9 44 d0 b6 3d 91 8f 0d 3e 31 33 8a be
       -0.00018456751 0.08926442 0.13824297 -0.2699218
000350 9b 0d 45 3e 02 e4 3e 3e e2 9a 1c 3f be 2d 77 3a
       0.19243471 0.18641666 0.6117383 0.00094291184
000360 85 db 7d be 11 fd e8 ba d1 47 82 3e 50 60 44 3b
       -0.24790771 -0.0017775615 0.25445417 0.0029964633
000370 26 92 2a be 86 f1 61 be e3 2b 3b 39 b4 36 68 3c
       -0.16657314 -0.2206479 0.00017850059 0.0141731985
000380 4b ee c5 bc 03 e5 a2 bb 44 05 0c 81 98 65 b3 b9
       -0.024161479 -0.004971148 -2.5717717e-38 -0.00034217234
000390 cb bc c6 b7 2d 68 c0 80 5d 04 37 bc 15 c7 bc 3b
       -2.3691353e-05 -1.7669786e-38 -0.011170474 0.005761037
0003a0 7b 44 35 be 64 76 9f be 70 7c 17 be f1 f9 d7 be
       -0.17701904 -0.31145012 -0.14793563 -0.42182878
0003b0 05 b8 71 bb 9b e9 94 3e d5 45 73 3e dc ae ec be
       -0.0036883366 0.29084477 0.23757108 -0.46227157
0003c0 63 bd cb 3d 18 52 36 3e 4e 92 ea 3e b0 a4 46 3a
       0.09948232 0.17804754 0.45814747 0.0007577641
0003d0 a0 67 a9 be 7f 4b ed bc d7 e5 cb bb fd 02 85 3a
       -0.33086872 -0.028966663 -0.0062224674 0.0010147985
0003e0 5e c0 c2 bb 86 04 1f ba ba 03 16 01 04 41 57 bc
       -0.005943342 -0.00060660427 2.7553323e-38 -0.0131380595
0003f0 2c b5 24 b5 14 5e ab 29 d5 80 72 00 23 cc d3 11
       -6.13584e-07 7.6102454e-14 1.0515463e-38 3.341574e-28

conv2.bias f4 [64]
000000 a3 25 3e 94 78 7b 6e 3d 8f d6 12 3e b8 a9 43 3e
       -9.599971e-27 0.058223218 0.1433966 0.19107711
000010 c3 5b 17 3e 50 aa fe 3c 41 74 e9 bc fe 19 25 3d
       0.14781098 0.03108707 -0.028497817 0.04030799
000020 86 d4 09 3e 24 22 c5 3b e9 11 5b ba 7f a5 ce 3d
       0.13459978 0.006016033 -0.0008356856 0.100901596
000030 41 76 48 38 95 78 c1 3c 11 57 98 3b 45 66 b2 b9
       4.779385e-05 0.023617068 0.004649051 -0.00034027002
000040 da 0f 10 3d f7 fa ba 39 62 d7 2c 95 73 52 c8 3b
       0.035171367 0.00035663668 -3.490503e-26 0.0061133443
000050 ad d5 f5 3d 7b 6b 20 35 5a 2a f9 bd c2 3e 92 3d
       0.12003646 5.976105e-07 -0.12166281 0.07140876
000060 0f 1d c5 bc ba ff 0b 3e 1f 14 16 bd bb 81 28 3b
       -0.024061708 0.1367177 -0.036640283 0.002571209
000070 53 9c 07 3d cb ef 21 3d 94 18 ed 3d ce 7f 65 86
       0.033108067 0.039535325 0.115769535 -4.316401e-35
000080 8c 51 ac 3d c2 36 83 ae 73 8d a7 bc 65 07 9b 3d
       0.08413991 -5.966917e-11 -0.02045319 0.0756977
000090 57 05 b8 3d 9f de 5f 3d f9 09 dd 3c af 48 a7 b2
       0.089853935 0.054655667 0.026982294 -1.9474411e-08
0000a0 9f 29 13 3c e2 93 7e b6 7d c0 ab 3d 4a 78 5f b6
       0.008982091 -3.7935029e-06 0.083863236 -3.3299607e-06
0000b0 c8 1c 1c 3a b3 73 26 3d cd 60 11 3c 58 69 02 3d
       0.00059552165 0.040637683 0.008873177 0.031838745
0000c0 37 c9 22 3d f8 3f fa b9 84 85 19 3d 58 a4 3b 3d
       0.039742675 -0.00047731376 0.037480846 0.045811027
0000d0 7f d4 82 bc f7 fd a6 3d e6 98 a2 39 c1 9f d1 b1
       -0.015970467 0.08153909 0.00031012966 -6.1008625e-09
0000e0 90 9b 94 81 8f ea 52 3d e8 88 0f a0 e2 88 82 b2
       -5.4589835e-38 0.051493224 -1.215787e-19 -1.5196239e-08
0000f0 3e 74 c8 3d 70 0a a2 3b 35 a0 bc 91 c1 f1 e7 b3
       0.097877964 0.004945092 -2.9759905e-28 -1.08007505e-07

conv2.lin.weight f4 [64, 64]
000000 b2 d3 2b 14 cc ae 89 92 e0 0c c3 10 aa 7d a6 92
       8.675043e-27 -8.689006e-28 7.6933775e-29 -1.0507051e-27
000010 08 6d 50 92 10 ba 15 14 73 2f 87 80 76 c9 62 01
       -6.576762e-28 7.559272e-27 -1.2414814e-38 4.1654185e-38
000020 43 e5 bc 01 b0 50 51 8f 72 f7 df 93 08 24 45 94
       6.938927e-38 -1.03200354e-29 -5.6537114e-27 -9.953064e-27
000030 9c 05 b8 81 66 63 1e 0e 0a b6 91 03 7a 29 be 11
       -6.7598974e-38 1.9522862e-30 8.564128e-37 3.0002276e-28
000040 7a 3c b2 12 4e ea f1 13 8f b7 43 92 96 09 2b 01
       1.1248288e-27 6.1067995e-27 -6.1757404e-28 3.1414617e-38
000050 c0 f2 94 0b 9e db 04 0c 02 cb 8f 01 f1 9e d1 91
       5.7372776e-32 1.0234999e-31 5.2821206e-38 -3.307234e-28
000060 20 12 56 00 32 de bc 10 92 4c f7 8b 85 bf bf 01
       7.904355e-39 7.449527e-29 -9.525615e-32 7.0437136e-38
000070 d2 82 d5 80 fc 71 27 10 15 95 34 93 88 f3 d0 10
       -1.960789e-38 3.3022753e-29 -2.2792697e-27 8.2416753e-29
000080 1e cd 32 82 20 7e ab 12 de 43 20 14 61 6c f5 8a
       -1.313624e-37 1.0822709e-27 8.09132e-27 -2.363341e-32
000090 48 aa 7a 01 c0 24 3c 11 0d 97 6d 01 4c 30 11 80
       4.603992e-38 1.484191e-28 4.36384e-38 -1.578529e-39
0000a0 54 49 66 93 9f ed 09 13 cf 17 9f 11 48 78 cd 92
       -2.9066235e-27 1.7408987e-27 2.510045e-28 -1.296697e-27
0000b0 f0 8e 36 94 a0 98 a3 90 2c 13 9e 01 b0 60 c0 8f
       -9.216841e-27 -6.452732e-29 5.8067544e-38 -1.8969904e-29
0000c0 da 31 82 80 38 14 d7 8f f1 14 18 94 e0 a1 89 00
       -1.1956498e-38 -2.1208425e-29 -7.678169e-27 1.2639533e-38
0000d0 45 03 28 92 8a 58 55 00 d9 d8 3e 12 00 52 93 01
       -5.3015483e-28 7.837779e-39 6.0220714e-28 5.4116936e-38
0000e0 dd 84 36 12 67 39 86 81 1b f2 3a 92 ba b9 da 90
       5.759284e-28 -4.9306194e-38 -5.898967e-28 -8.6271996e-29
0000f0 10 26 93 12 f8 e6 89 00 d1 8a f7 93 ef 53 f7 8b
       9.286387e-28 1.2664319e-38 -6.248845e-27 -9.526723e-32
000100 ae e9 5c 3d 02 ab a7 3d 39 ea 04 bd d2 9a 0b bb
       0.05393379 0.08186914 -0.032449935 -0.0021301997
000110 fd 9c 7f bd 69 bf ed bd d4 ad 01 81 70 cd e0 33
       -0.062405575 -0.11608774 -2.3818274e-38 1.0468182e-07
000120 df 37 97 b9 aa c1 f2 3d d0 e8 f8 bd 2c 04 f1 bd
       -0.00028842592 0.11853345 -0.121537805 -0.11768374
000130 6f ec e2 80 1a 7c 99 b9 46 c4 0b 3d 0b 77 49 3e
       -2.0839639e-38 -0.00029274897 0.034122728 0.19674318
000140 0e 30 1b 3d 82 aa e7 bd 78 c7 e4 3c 82 42 82 80
       0.037887625 -0.11311819 0.027927145 -1.1962473e-38
000150 30 94 b1 39 06 69 aa 3a e1 d4 23 aa 17 7b 71 be
       0.0003387048 0.001300127 -1.4551165e-13 -0.23582111
000160 ec e4 72 3c 36 fb 7e 3d 72 a7 b4 3c 8e d1 1d 01
       0.014825087 0.062251292 0.0220525 2.8986694e-38
000170 9c 3a 5b 81 14 7d 82 bd ea 31 3d be 1c 20 ed 3c
       -4.0265997e-38 -0.06371513 -0.18476072 0.028945975
000180 6c 59 06 bc 1b 87 1f bd 7e d6 8e be 0f 65 20 3d
       -0.008200031 -0.038947206 -0.2789802 0.039158877
000190 2f 93 07 84 54 b7 67 3d ee 9d 6b 00 d0 71 54 01
       -1.5936757e-36 0.05657132 9.883053e-39 3.9019907e-38
0001a0 d4 80 14 bc 89 37 1a be 3a ce 95 3d df 69 82 3d
       -0.009063918 -0.15060247 0.07314725 0.063678496
0001b0 b8 1a 14 be 1c aa 72 bb 98 b9 50 1e ae 45 30 3c
       -0.14463317 -0.0037027663 1.1049808e-20 0.0107588
0001c0 0f a2 10 01 d5 d8 24 3d 69 33 a5 bd fc b3 dd 22
       2.6564894e-38 0.04024585 -0.08066446 6.0092736e-18
0001d0 4e 77 97 bc 62 e5 57 80 f7 aa 75 bd c6 45 7a 01
       -0.018489506 -8.071975e-39 -0.059977498 4.5967808e-38
0001e0 62 9c ec 3d 9e e4 62 00 3f 99 cf 3d 94 32 ea bc
       0.11553265 9.081891e-39 0.10136651 -0.02858857
0001f0 2f cf c9 3d 48 1d 1f 01 49 8d c2 3d b9 ce 91 3d
       0.0985397 2.9224696e-38 0.09499604 0.07119507
000200 64 30 db 3d 89 a9 d1 3b dd 72 71 3d 92 17 4b 3d
       0.10702589 0.006398384 0.058947433 0.049583025
000210 53 72 79 bd bc 16 59 be 8e db 7d 80 3c bf 7c 39
       -0.060900044 -0.21200079 -1.1558198e-38 0.00024103833
000220 60 e7 0e bc 5c 3f 48 3e 96 15 c0 3c 6d 3f 40 bc
       -0.008722156 0.1955542 0.023447793 -0.011733872
000230 60 9b b7 01 2b a2 af 3a c5 25 92 3d 9b 29 2c 3e
       6.7446535e-38 0.001339977 0.0713611 0.16812746
000240 4d 36 11 3e 6a bd d1 bd 79 07 21 3e 08 4f 68 01
       0.1418087 -0.10241206 0.15725507 4.2668372e-38
000250 64 3b 1a 3c 9c 76 6f bc 2c a2 7b 2a dc b6 de be
       0.009413574 -0.014615681 2.2349543e-13 -0.43498886
000260 09 71 5c 3c 42 b0 b4 3d 75 bf 3e 3d b4 13 8b 17
       0.013454684 0.08822681 0.046569306 8.987638e-25
000270 2a 2e 1b 26 0f 20 9e 38 4d d9 b3 be 3e 87 e7 3c
       5.383899e-16 7.5399985e-05 -0.35126725 0.02826273
000280 fa 24 90 3c 72 24 c5 3d cc b9 ee be de d7 61 3d
       0.017595757 0.09626092 -0.46626127 0.055137508
000290 55 d1 86 84 9d 8d b9 3d d4 f5 07 81 8e 1e 07 81
       -3.169549e-36 0.09060214 -2.4971957e-38 -2.4817506e-38
0002a0 94 01 3f bc 6c 29 8f be bd fb 7c bd c1 b2 0f bd
       -0.011658091 -0.2796129 -0.061763514 -0.035082582
0002b0 d2 2b 88 be 55 cb 5d bd 5c bf ff 9f 77 1d f5 3d
       -0.26595932 -0.05414899 -1.0831328e-19 0.119685106
0002c0 f4 4e 85 01 24 9d e6 3d 65 4d f1 3c 3a 21 25 b5
       4.8969776e-38 0.11260441 0.02945585 -6.151564e-07
0002d0 dc 7e 3a bd 25 a4 74 00 10 53 1f bc bc c9 cf 00
       -0.04553114 1.0711802e-38 -0.0097243935 1.9082316e-38
0002e0 c4 a3 27 3e 1d b3 8d 80 da e4 b7 3d f3 1c 17 bc
       0.16371065 -1.3013059e-38 0.08979197 -0.009223211
0002f0 d7 44 3b 3e 88 ca c1 00 ff 78 6a bd 45 d3 a4 3d
       0.18287979 1.7796905e-38 -0.057244297 0.08048109
000300 e5 21 10 bd c0 4a e9 bc 9e 42 b8 b9 1e 7b cd ba
       -0.035188574 -0.028478026 -0.00035144849 -0.001567695
000310 ba d2 4d 38 7b 42 99 3c e6 01 08 01 dd ef 4f 38
       4.9072063e-05 0.018708458 2.4980617e-38 4.9576036e-05
000320 f2 cd 84 3a 5c 5a 0c bd a1 51 20 bd 5f b1 57 bd
       0.0010132177 -0.03426586 -0.039140347 -0.05265939
000330 e9 f6 24 81 fd 89 26 19 f2 d8 5a 3d 4c d8 24 bc
       -3.0299192e-38 8.609865e-24 0.05342955 -0.010061335
000340 c7 79 b4 3b 26 73 08 bc 8d 25 cb bc 96 1f 38 01
       0.005507681 -0.008328235 -0.024798179 3.3818124e-38
000350 2e e9 eb 3c 7f 1e fa 37 07 e8 d2 a8 14 98 1f bd
       0.028797712 2.9816523e-05 -2.341531e-14 -0.038963392
000360 f2 32 bd 3a d1 28 ba bc 3a 6e e4 3c e0 f3 80 00
       0.0014434739 -0.02272454 0.027884591 1.184243e-38
000370 47 5b 85 81 3c 0b 3c bd ce 55 a0 bb 11 23 3a bd
       -4.898746e-38 -0.04590915 -0.004893041 -0.0454436
000380 88 16 99 3c 29 2d c9 bc 57 b3 e0 36 7a 18 17 3d
       0.018687502 -0.024557667 6.696598e-06 0.036888577
000390 b3 c1 21 84 5f b7 14 bd d8 e1 1d 81 5b df b6 00
       -1.9014401e-36 -0.03630769 -2.899838e-38 1.6794185e-38
0003a0 2f 9f 73 bd 93 b3 19 bc 05 52 3c bd d8 49 39 bd
       -0.05947798 -0.009381193 -0.045976657 -0.04523644
0003b0 14 14 38 bc 39 85 ac bb d5 06 d1 9f 22 11 90 bc
       -0.011235256 -0.005264905 -8.8526246e-20 -0.017586295
0003c0 10 ca 42 81 e9 c8 dd bc 8c 2f 4a bd 24 de e3 17
       -3.5777145e-38 -0.02707334 -0.04936175 1.4725607e-24
0003d0 d7 5a d6 bc 80 bd 4c 81 96 c8 f6 bc 1c f4 5d 80
       -0.026166363 -3.7604842e-38 -0.030124944 -8.628271e-39
0003e0 f8 2a 01 bd c6 21 96 01 5b 2f 07 bd c9 73 d5 ba
       -0.03153512 5.514976e-38 -0.033004146 -0.0016285117
0003f0 a7 6b e3 3c 44 6e aa 00 48 e1 62 bd ba 22 95 3d
       0.027761294 1.565159e-38 -0.055390626 0.07282014

conv3.bias f4 [64]
000000 cc f4 69 06 da 5f 6c 3d 6a e5 c7 3d 29 81 96 b7
       4.4002278e-35 0.0577086 0.09760554 -1.7941538e-05
000010 3e b7 30 3d 4c a0 94 3d 5b 67 c1 3d 97 da ba ba
       0.043143503 0.07257137 0.094435416 -0.0014255819
000020 8e 21 75 b1 87 24 8d 3d 69 14 94 3d 44 a1 82 3d
       -3.5671266e-09 0.06891733 0.072304554 0.06378415
000030 91 0a a5 3d 12 d7 f1 3a c0 ab ee 3d 5a 05 ce b6
       0.08058656 0.0018450937 0.116538525 -6.1399014e-06
000040 dc 3d 9f 3d 24 18 ad 3d de 1e cf 3d aa 72 4f bc
       0.077754706 0.0845187 0.10113309 -0.012661615
000050 34 dd c0 3d 3c 60 02 3e 3a 31 29 3d 7d eb 66 b4
       0.09417191 0.12732023 0.04130671 -2.150609e-07
000060 50 42 c2 3d f7 25 91 3d 95 3e 8a ad cf 34 9f 3d
       0.09485304 0.07087319 -1.5716576e-11 0.07773744
000070 06 26 44 3d 7d 83 f4 3c ee 5d 00 3e a0 dd 32 3d
       0.047887824 0.029847855 0.12535831 0.04366839
000080 0f 4e 63 3e b5 16 3f b3 c9 16 b9 3d 40 7a 42 b7
       0.22197746 -4.4491305e-08 0.09037549 -1.1591765e-05
000090 57 63 ac 3d 36 e5 1f b9 d8 21 2d 98 91 bc 04 3e
       0.08417385 -0.0001524881 -2.2376813e-24 0.12962557
0000a0 ff 08 19 3e 23 c7 bf 3c 78 61 c6 b5 20 a4 18 3d
       0.14944838 0.023410385 -1.4780517e-06 0.037265897
0000b0 85 fd 14 3d b3 ea 85 3d 68 b9 51 3d af e7 af 3d
       0.036374588 0.06538906 0.051202208 0.08589112
0000c0 f1 1b 80 3e c7 9c 8c 3d df 8d 2e 3e d1 f5 56 3d
       0.25021318 0.068658404 0.17046307 0.052480523
0000d0 79 3a 22 3d bf 82 15 bb b5 1f b5 3d df e8 78 3d
       0.039606545 -0.0022813526 0.08843938 0.06076896
0000e0 91 c8 84 3c 3d ee bc 3d cc 0f 89 3d 05 5f ef 3d
       0.016208919 0.09225128 0.06692466 0.116880454
0000f0 42 ee a6 3d b1 aa 41 b1 31 e6 78 3e 4c f9 9a 3d
       0.08150913 -2.8182223e-09 0.24306561 0.07567081

conv3.lin.weight f4 [64, 64]
000000 e9 d1 95 81 10 3b 26 87 1d 14 33 88 0e f3 08 07
       -5.503516e-38 -1.2505809e-34 -5.3889496e-34 1.030293e-34
000010 18 51 02 08 43 f5 fe 86 98 fa 48 87 07 16 30 87
       3.9215777e-34 -9.590456e-35 -1.5119971e-34 -1.3247242e-34
000020 7e 1a 09 88 b2 56 d9 84 39 14 43 01 88 ce a7 86
       -4.125808e-34 -5.1096072e-36 3.5830353e-38 -6.312189e-35
000030 6c 92 37 81 0f 0d 57 06 f9 19 a1 84 64 48 db 01
       -3.3716844e-38 4.04466e-35 -3.787477e-36 8.055177e-38
000040 18 95 6d 87 ce ed a7 80 04 8e 9d 80 8e 06 a5 85
       -1.7873713e-34 -1.5421836e-38 -1.4469119e-38 -1.5518933e-35
000050 c4 59 11 87 40 0f 77 00 ba 13 ee 84 60 d3 b7 87
       -1.0934967e-34 1.0933895e-38 -5.5971647e-36 -2.7659015e-34
000060 9e 74 d1 86 7b 88 5e 87 36 08 8c 86 d7 fb 84 82
       -7.8788416e-35 -1.6741532e-34 -5.267421e-35 -1.9540206e-37
000070 0c 19 df 84 22 6d 89 86 3b de c4 87 06 ca 87 01
       -5.245005e-36 -5.169403e-35 -2.9621418e-34 4.988106e-38
000080 1c 96 d7 06 00 50 65 01 5a ec d3 06 4c 87 fd 05
       8.109458e-35 4.2118054e-38 7.9716666e-35 2.3841706e-35
000090 c2 c6 1c 88 96 87 63 88 6e a6 96 85 64 5b 56 01
       -4.717818e-34 -6.846971e-34 -1.4167069e-35 3.9371162e-38
0000a0 3b ca c1 06 43 7f 82 01 61 86 78 86 7b a6 a8 01
       7.289568e-35 4.793707e-38 -4.6742342e-35 6.195234e-38
0000b0 16 7e 55 02 ce 4e 45 87 33 c2 65 85 0e 85 86 86
       1.5684953e-37 -1.4843791e-34 -1.0803197e-35 -5.0600704e-35
0000c0 e0 b7 ff 87 88 58 2e 01 ac 0e e6 86 18 92 f6 97
       -3.8476208e-34 3.202227e-38 -8.653794e-35 -1.5934257e-24
0000d0 f7 97 15 87 d6 07 11 07 6b 35 cb 81 1b dc 55 81
       -1.1254173e-34 1.091089e-34 -7.4647074e-38 -3.927984e-38
0000e0 50 c5 25 80 4c b4 2b 87 d0 68 88 01 6d a7 15 01
       -3.468696e-39 -1.2917595e-34 5.010891e-38 2.74871e-38
0000f0 a4 bd e9 87 64 e6 88 83 6e d3 72 80 df c8 40 81
       -3.5169404e-34 -8.046257e-37 -1.0545093e-38 -3.5408948e-38
000100 c7 d9 a1 91 1a 9b b9 3c ae de 59 3d b7 da 0b bd
       -2.5535537e-28 0.022656966 0.05319088 -0.03414413
000110 9a 89 15 bd 8b 74 5e bc 22 45 cd 3d 66 ec 00 3a
       -0.03650818 -0.013577591 0.10022952 0.00049180386
000120 45 fa cb bc ec 9c 08 bb 74 bf 33 b5 aa e3 d8 bc
       -0.024899611 -0.0020845486 -6.69613e-07 -0.026475746
000130 8e 3a 84 37 ff c1 ec bb 37 48 32 b9 9a 68 eb b7
       1.5762893e-05 -0.0072252746 -0.00017002305 -2.8062892e-05
000140 fa 78 13 3e c2 20 82 38 74 5c cc 93 97 ff b5 bb
       0.14401618 6.204985e-05 -5.1588006e-27 -0.0055541503
000150 8d c8 88 bc a7 b7 79 34 5a 8f 17 3c 6e 9f ce bc
       -0.016697193 2.3256744e-07 0.009250486 -0.025222506
000160 50 2b 9e 3c 2d c2 69 3d c2 c9 2a 3e be bb 0d b8
       0.019307762 0.057069946 0.16678527 -3.379187e-05
000170 53 92 6f bc 62 44 d6 3b 15 45 bf bb ea f2 bc 84
       -0.014622289 0.0065389136 -0.0058370926 -4.442167e-36
000180 e8 be 80 bc 0d 1b 66 04 bf e1 41 3c ef 05 ad bc
       -0.015716031 2.7048791e-36 0.011833607 -0.021120993
000190 71 32 81 bd f7 9e e9 bd 47 ad 54 bc 92 53 2f b0
       -0.06308449 -0.11407273 -0.012980766 -6.378339e-10
0001a0 24 d7 3f 3e 31 f0 c7 33 d0 78 47 bc 33 dd 87 85
       0.18734413 9.31035e-08 -0.0121748 -1.2776595e-35
0001b0 ec ab 8c 37 dd 3f 07 bd 31 d2 f2 bb 15 0f 94 3d
       1.6769358e-05 -0.03301989 -0.0074103107 0.07229439
0001c0 91 54 f6 3d bc aa e4 b2 c5 1d 82 bb 51 90 c5 3c
       0.120278485 -2.6620334e-08 -0.003970834 0.024116667
0001d0 65 5a c4 3d 03 ef 95 bc ea 6e 69 38 be 52 f6 02
       0.09587554 -0.018302446 5.5654826e-05 3.6193943e-37
0001e0 48 b6 6a 01 09 c6 1f bc b2 ab a2 01 7f cb 3a 2f
       4.3109793e-38 -0.009751805 5.975577e-38 1.6988898e-10
0001f0 5f bf 00 3e b0 7d 3a 3c f2 2a e3 10 73 c6 a6 01
       0.12573002 0.011382505 8.960188e-29 6.126353e-38
000200 b6 5e f0 11 64 27 fb 3d c8 55 26 3e 0f 30 3a 3d
       3.7923694e-28 0.122633725 0.1624366 0.04545599
000210 28 df 1d 3b 24 b6 31 3c ec 4e cd 3d 1a 9d d5 3d
       0.002408931 0.010846648 0.10024819 0.10430355
000220 0d 5a a6 3c 3b 8c 32 bc f6 e5 8c 36 b9 b2 a3 bb
       0.020306611 -0.010897691 4.199096e-06 -0.0049956706
000230 ff 25 2c b9 32 25 9c ba 70 6a ff 3a b3 25 a6 b8
       -0.00016417353 -0.001191294 0.0019486677 -7.922519e-05
000240 7f 7c ae 3d 69 0f c3 39 f1 75 d5 94 4b ed 89 3b
       0.085198395 0.0003720478 -2.1554023e-26 0.0042091957
000250 69 93 be bb 8c 1e 45 35 5a 86 ef bd 2c 1d 1a 3d
       -0.0058159125 7.343267e-07 -0.116955474 0.037625477
000260 5a 58 d5 3d de 8e 23 3e ef c2 b1 3d 7f 20 9b 39
       0.10417242 0.15972468 0.08679759 0.00029588115
000270 b2 5b 27 3d ea 30 01 3d ac 7d 02 3e 5d 5b 92 05
       0.04085893 0.03154079 0.12743253 1.3763336e-35
000280 a9 8b 76 3c f2 25 11 05 f8 30 0a 3c e4 d2 53 3c
       0.015047946 6.824837e-36 0.008434527 0.012928698
000290 2d c2 c6 ba f9 b6 b6 bd ae 51 19 3c 7b 34 90 b3
       -0.001516407 -0.08921618 0.009357853 -6.715069e-08
0002a0 ad 59 8a 3d 5c 23 d7 b5 0f ac 11 bd f5 8f c0 a6
       0.067553855 -1.6029039e-06 -0.03556448 -1.3361696e-15
0002b0 4a 3d e6 b8 2f 30 a8 3c a6 63 37 3c 61 5e 0c 3e
       -0.000109786706 0.020530788 0.011193192 0.13707878
0002c0 98 f4 09 3e 81 69 a7 b3 19 f5 1c 3c 4c b9 79 bd
       0.13472211 -7.7957345e-08 0.00957992 -0.06096773
0002d0 8f ae 99 bd 6f c9 a4 bb 6c 21 38 38 94 e9 81 1e
       -0.075039975 -0.0050288956 4.3900145e-05 1.3755012e-20
0002e0 3c 73 a8 81 34 60 b5 3c 49 e4 e2 80 7a 79 18 b0
       -6.1878807e-38 0.0221406 -2.0836715e-38 -5.5469906e-10
0002f0 15 f1 7f 3e 90 d3 82 bc 81 d7 88 10 07 20 73 80
       0.24994309 -0.015970021 5.397458e-29 -1.0572571e-38
000300 55 10 09 00 c3 05 13 9d 02 92 c0 a7 6a 84 71 9a
       8.32378e-40 -1.9458267e-21 -5.3449007e-15 -4.9944595e-23
000310 97 da 91 92 85 63 31 80 7c 60 b1 94 44 66 88 94
       -9.204673e-28 -4.53564e-39 -1.7910489e-26 -1.3772827e-26
000320 f0 66 a3 08 c2 9d 53 01 7e 8e 65 00 2c b1 7d 01
       9.834406e-34 3.8867765e-38 9.326502e-39 4.6595876e-38
000330 5e f3 35 81 82 39 58 81 a9 9c 01 00 b0 cd 77 00
       -3.3419057e-38 -3.9714194e-38 1.48035e-40 1.1002211e-38
000340 04 19 36 a7 d1 b3 99 01 51 62 b5 01 1b 76 94 80
       -2.5271135e-15 5.646135e-38 6.6629976e-38 -1.3634022e-38
000350 0b d6 de 8d fa 4d 35 81 f2 f7 ea 00 88 2b 6c 01
       -1.3733335e-30 -3.3300395e-38 2.1578452e-38 4.3377586e-38
000360 b3 fe 38 00 bc 98 02 a5 bb 12 0a a0 68 ee c4 00
       5.234157e-39 -1.1327451e-16 -1.1695252e-19 1.8085281e-38
000370 f1 fa b3 01 66 7a e8 07 5e de a9 a0 fe 73 0e 01
       6.61143e-38 3.497942e-34 -2.8776864e-19 2.61645e-38
000380 e2 3c 4c 01 18 44 0d 81 02 ee 29 8e d8 d2 09 01
       3.7512564e-38 -2.5946465e-38 -2.0945455e-30 2.53142e-38
000390 c0 61 5f 8d 5f 04 c6 aa 2a ba 30 80 1e 39 77 01
       -6.8834843e-31 -3.5174898e-13 -4.474887e-39 4.5407715e-38
0003a0 67 12 bb ab c0 19 12 81 50 8c b3 01 4a 51 8d 01
       -1.3292257e-12 -2.683444e-38 6.5955554e-38 5.1911864e-38
0003b0 08 50 76 80 53 38 9c 01 b4 8d a9 00 ee f6 bc a4
       -1.0865298e-38 5.738617e-38 1.5571032e-38 -8.195032e-17
0003c0 1d 70 b9 a6 4a 19 be 01 b7 9e 40 81 04 2b 17 b2
       -1.2867342e-15 6.9831265e-38 -3.5378703e-38 -8.799137e-09
0003d0 f2 48 80 99 f5 fe ad 01 32 aa 28 00 6a 92 31 80
       -1.3264352e-23 6.391601e-38 3.734474e-39 -4.552463e-39
0003e0 fe d2 9a 00 e2 34 30 01 88 86 12 81 0a aa a3 80
       1.4218356e-38 3.2364036e-38 -2.6912486e-38 -1.5030184e-38
0003f0 de 74 30 aa 97 66 2b 06 76 7f 03 81 48 15 2e 00
       -1.5672487e-13 3.2236897e-35 -2.415235e-38 4.232067e-39

lin1.weight f4 [64, 64]
000000 46 3d ac 06 4d 86 63 3d b0 e1 96 3d e6 70 04 01
       6.478924e-35 0.055548 0.07367265 2.4325572e-38
000010 b8 39 26 3c 77 b8 b6 3c 45 d9 00 3d 9f ed 77 3a
       0.010145597 0.022304757 0.031457204 0.00094577105
000020 4b 78 fd 2d 1a fd 6c bb 72 ab 9c 3b 47 55 5d ba
       2.881619e-11 -0.0036161602 0.00478118 -0.0008443188
000030 e6 d2 83 3d ce d7 28 b9 15 de 29 3c 2c 9f a9 b0
       0.0643671 -0.00016102122 0.01036789 -1.2341608e-09
000040 3f fa 65 3d ee a6 84 3d af 3a 64 3d 88 b0 17 38
       0.056146856 0.06477152 0.055720028 3.6165613e-05
000050 cb e5 89 3d 0b 1a 56 3c 44 5a 8b bb 3b ed b4 b2
       0.06733283 0.013067733 -0.004252704 -2.1062638e-08
000060 50 10 cc 3c 1e 94 66 3d 11 21 cb 00 65 55 81 3d
       0.024910122 0.0562936 1.8654468e-38 0.06315116
000070 11 87 10 3d 61 92 fe bb 23 2d a4 3c e2 d9 39 3c
       0.03528506 -0.0077689146 0.020041054 0.011343451
000080 71 20 87 3d e1 d2 94 b1 da c2 8b 3d 14 82 66 32
       0.065979846 -4.331341e-09 0.06824274 1.3417338e-08
000090 c6 81 88 3d 4e 79 f4 b5 55 74 fb 80 91 7f 0c 3d
       0.06665377 -1.8214721e-06 -2.3092442e-38 0.034301344
0000a0 49 0e 04 3d af b5 75 3d 50 e5 4f a2 b5 23 36 3d
       0.032240186 0.05998772 -2.8175128e-18 0.044467647
0000b0 d1 58 3a 3d 90 ba 55 3d e1 f8 1e 3d e7 49 63 3d
       0.04549486 0.052179873 0.03881157 0.0554904
0000c0 37 85 a5 3d d9 41 7c 3d 85 8f 9d 3c 9c 66 6c 3d
       0.08082049 0.061586235 0.019233475 0.057715043
0000d0 74 6e 21 3d 89 24 89 36 82 2d 84 3d ad 15 0f 3d
       0.039411977 4.0871714e-06 0.064539924 0.03493278
0000e0 8c 5b 5a bb d1 07 85 3d 4b 12 9a 3c c7 53 a4 3c
       -0.0033318726 0.064956315 0.01880755 0.02005948
0000f0 62 3e 73 3d 32 79 38 a8 a7 6c 99 3d 8e 74 8a 3c
       0.059385665 -1.0240332e-14 0.07491427 0.01690128
000100 aa d4 63 80 e1 30 44 b8 a2 9e 70 00 a8 69 92 81
       -9.168004e-39 -4.6775564e-05 1.0342482e-38 -5.378354e-38
000110 46 28 a5 25 d6 26 ab ac 4f ac 2f 80 24 e5 e5 00
       2.8650228e-16 -4.864424e-12 -4.378081e-39 2.1112529e-38
000120 96 e5 b7 30 aa 3e 14 01 b1 b2 3c b0 0c 31 90 01
       1.3380255e-09 2.7228266e-38 -6.864794e-10 5.2967625e-38
000130 5c dd 08 37 b5 a8 2d 2b 12 22 99 80 cc e7 a5 33
       8.157771e-06 6.1696075e-13 -1.4063053e-38 7.725575e-08
000140 76 1b 26 80 9e e1 26 94 d0 bd aa 80 e9 fb 43 80
       -3.4996e-39 -8.4253534e-27 -1.5680126e-38 -6.243347e-39
000150 20 19 9d b6 d2 46 44 80 61 05 28 1d 3b 77 e4 2c
       -4.6818895e-06 -6.270219e-39 2.2237396e-21 6.493387e-12
000160 0d 69 2d 80 ae a7 b7 b4 bc ce 17 80 64 5c c7 31
       -4.170282e-39 -3.420841e-07 -2.186379e-39 5.802166e-09
000170 61 d4 53 39 b3 f7 b0 81 64 23 3b 01 11 5e 3d 01
       0.00020201645 -6.500762e-38 3.4371867e-38 3.4781307e-38
000180 5b 58 ad 81 de 20 ec ae d1 f4 96 9d 03 13 75 81
       -6.367695e-38 -1.0737876e-10 -3.9957804e-21 -4.5013033e-38
000190 17 50 87 38 e0 81 b4 32 c1 1e cc 15 7c 41 18 81
       6.4522195e-05 2.1013818e-08 8.2443465e-26 -2.7964974e-38
0001a0 45 63 6a 39 2e da b8 b6 fc e9 8d 9f 04 a2 d8 b6
       0.0002235296 -5.509027e-06 -6.010292e-20 -6.4561627e-06
0001b0 9f ad 88 a8 f5 c8 59 38 0f 66 99 00 af 37 92 a1
       -1.517433e-14 5.1923987e-05 1.4087443e-38 -9.908084e-19
0001c0 a7 98 34 ac 44 46 e7 39 f0 bc 7f 80 f6 fb 9b a6
       -2.5664278e-12 0.00044112105 -1.1730886e-38 -1.082358e-15
0001d0 47 3e 21 36 b2 f2 a2 b8 48 73 87 3b 43 cd 83 bb
       2.402712e-06 -7.7699675e-05 0.0041336156 -0.004022272
0001e0 02 8f 43 94 1e 93 13 36 d2 04 82 b3 f0 7c 07 93
       -9.8731874e-27 2.199034e-06 -6.0544735e-08 -1.7100994e-27
0001f0 8e dd 86 b9 73 56 5a 2d 60 61 4a 01 41 6a 8d 00
       -0.00025723543 1.2411061e-11 3.7171404e-38 1.2986922e-38
000200 e9 b3 2e 81 29 39 9d 10 2c cf 8a a4 46 1d 79 81
       -3.2087832e-38 6.201365e-29 -6.019892e-17 -4.575508e-38
000210 30 58 3b 01 e0 f5 36 80 55 c5 5b 98 3a be 36 00
       3.4409747e-38 -5.04732e-39 -2.8404714e-24 5.027357e-39
000220 2a e1 7c 01 76 fb 33 00 18 c1 cd 00 fa 20 f9 80
       4.6446637e-38 4.773817e-39 1.8895546e-38 -2.2878868e-38
000230 f4 b9 2b a2 cc 4a 57 80 a5 14 db 80 84 5b 73 01
       -2.3273264e-18 -8.01652e-39 -2.011938e-38 4.469771e-38
000240 f3 4b 75 9d 1a 13 36 a2 68 5a 83 a7 24 b6 3d 00
       -3.2464745e-21 -2.4675712e-18 -3.6457823e-15 5.667305e-39
000250 98 44 61 aa c8 5a 06 81 0c 1d 86 00 c0 48 9f 00
       -2.0007813e-13 -2.4677045e-38 1.2316377e-38 1.4627942e-38
000260 15 ce 1f 9b 7a 19 d7 a2 74 9b 9b 00 da 76 3b a1
       -1.321876e-22 -5.830284e-18 1.4290268e-38 -6.3515363e-19
000270 e1 e2 4f 00 90 f0 b0 81 24 c8 84 9e ae e3 13 81
       7.336393e-39 -6.499738e-38 -1.405882e-20 -2.7162988e-38
000280 9b a3 77 8a 9c cb 2a 81 2e 36 00 9d 40 dc 9c 80
       -1.1923388e-32 -3.137015e-38 -1.696867e-21 -1.4405348e-38
000290 1e ac 52 a3 38 76 8c 00 13 12 0a 01 6a 3c 95 a2
       -1.142057e-17 1.2899378e-38 2.5359565e-38 -4.0450497e-18
0002a0 3e 0d 84 80 aa 46 90 81 78 24 af 01 88 5c a9 00
       -1.2127036e-38 -5.2998644e-38 6.433718e-38 1.5553393e-38
0002b0 c8 43 06 01 6f f3 b2 89 a0 56 13 80 d7 89 3e a0
       2.4660544e-38 -4.3080865e-33 -1.77595e-39 -1.6139233e-19
0002c0 eb 19 7f 99 2f 94 77 93 0c 5f 8e 9c 4f 4c 40 8a
       -1.3188425e-23 -3.1248843e-27 -9.421341e-22 -9.258816e-33
0002d0 de 74 81 01 a4 70 0b 01 8c 30 9a a8 bd 2b 2b 86
       4.755481e-38 2.5611084e-38 -1.7118488e-14 -3.219366e-35
0002e0 aa 78 8c 01 76 cf fe a1 b9 48 bc 80 f9 13 a9 99
       5.160102e-38 -1.7266624e-18 -1.7291161e-38 -1.7482257e-23
0002f0 c8 7a 7e 9e 16 53 00 81 30 c7 48 92 ad 5c ff 08
       -1.3472039e-20 -2.3569498e-38 -6.335439e-28 1.5369042e-33
000300 a2 d1 23 80 10 22 13 b5 37 0c f4 80 4e de 5b 00
       -3.289444e-39 -5.4811335e-07 -2.2412243e-38 8.436778e-39
000310 58 76 40 80 49 12 72 03 07 d3 e1 80 ea 17 22 81
       -5.919925e-39 7.11384e-37 -2.0738689e-38 -2.9771858e-38
000320 3b 06 60 a6 bc 81 4b 01 f4 30 76 18 24 1c 0a 00
       -7.7724056e-16 3.737829e-38 3.181947e-24 9.2845e-40
000330 b4 4a 37 ae be 3e 49 80 2b d2 18 81 07 db 85 2a
       -4.1675732e-11 -6.726499e-39 -2.806878e-38 2.3777527e-13
000340 db 32 e0 80 db c7 71 81 a4 ea 86 80 74 e1 65 81
       -2.0589395e-38 -4.4408098e-38 -1.239013e-38 -4.2222412e-38
000350 a9 c8 a6 2d 6f 6e 3f 81 c1 03 86 01 f5 09 f8 1b
       1.8961126e-11 -3.5160392e-38 4.922921e-38 4.1034593e-22
000360 9a 0c 56 80 21 99 46 9f 9a 2a 5c 80 f1 f9 7a 1b
       -7.902373e-39 -4.2054796e-20 -8.464148e-39 2.0760276e-22
000370 fd 88 ad 34 de aa b4 00 ff 97 b3 81 38 3c d4 00
       3.2323433e-07 1.6591685e-38 -6.597232e-38 1.9490728e-38
000380 84 e7 80 01 52 94 35 a7 2a d1 48 01 27 4d a6 00
       4.735198e-38 -2.51992e-15 3.6884266e-38 1.527237e-38
000390 92 16 5b 2a c4 a4 05 2a a8 a4 2d 80 df 9c a3 00
       1.9458938e-13 1.1869938e-13 -4.191665e-39 1.502546e-38
0003a0 ea 49 9c 32 32 a3 b8 2f 3c 7b 1d 00 07 eb 20 ac
       1.8194402e-08 3.3585362e-10 2.707438e-39 -2.2867834e-12
0003b0 53 6b df 90 36 ad a6 b0 62 5f c5 00 b4 35 7a 81
       -8.812335e-29 -1.2127319e-09 1.812581e-38 -4.5956278e-38
0003c0 e9 a2 1e 8a 9c 9d e8 b2 8c d7 0e 80 fe f3 0f 00
       -7.638063e-33 -2.7080027e-08 -1.36302e-39 1.46506e-39
0003d0 51 d8 15 2f 08 31 c0 b1 57 fd 15 37 99 3f ef b6
       1.3628322e-10 -5.5935097e-09 8.940077e-06 -7.130159e-06
0003e0 be 35 06 01 9d 52 f2 a5 4a 34 78 a5 51 d0 61 80
       2.465047e-38 -4.203629e-16 -2.1528287e-16 -8.982773e-39
0003f0 91 72 e4 31 bd 5f 15 20 9c 91 56 81 b6 0c af 01
       6.648698e-09 1.2652468e-19 -3.9410062e-38 6.4303087e-38

lin1.bias f4 [64]
000000 46 bd 94 3d 11 a7 2c bc e8 58 fa b4 d5 31 60 b9
       0.072626635 -0.010537879 -4.6630817e-07 -0.00021380869
000010 d7 a4 ad 3d 14 fb 97 3d 78 47 af 3d 2e a2 a6 3d
       0.08478706 0.07420936 0.085585535 0.08136402
000020 92 24 1f bb 72 34 1c bd 21 c4 65 3c d9 05 bc bc
       -0.0024283272 -0.038135953 0.014023812 -0.022952007
000030 56 19 90 3d 4a 31 db 3a a0 46 71 b5 54 d9 0a 3e
       0.070360824 0.0016723063 -8.988227e-07 0.13559467
000040 8a 87 8f be 21 76 b0 3d 12 60 b9 3d 2f 16 ab 3d
       -0.28033096 0.08616281 0.09051527 0.083538406
000050 99 cc b1 3d d2 0d fb 3d 9a ef cd b8 c2 73 0e ad
       0.08681602 0.122584954 -9.819791e-05 -8.097469e-12
000060 59 fe 28 a5 5f 7d 02 ba cf e4 89 ae 50 11 06 ba
       -1.4657854e-16 -0.0004977788 -6.270683e-11 -0.0005114274
000070 68 3d 07 3e 11 c8 9f 3d d2 4e 05 bd 72 4f dc b4
       0.13207018 0.078018315 -0.032545872 -4.1035997e-07
000080 32 b2 76 b4 e0 2b 92 39 56 60 02 3e 88 06 4f b7
       -2.2975362e-07 0.0002787998 0.12732062 -1.2339682e-05
000090 4c b0 49 3d c8 dc 93 3d 6d 7e 84 3d ca 33 f2 38
       0.049240395 0.07219845 0.06469426 0.00011549106
0000a0 60 f3 77 bd fd d5 ca 3d 9b c6 f1 ab aa d2 90 b8
       -0.060534835 0.09904096 -1.7179204e-12 -6.905694e-05
0000b0 45 b3 06 b7 5d 66 ee 3c da 87 1f 8a 54 4a 3f bc
       -8.028762e-06 0.029101545 -7.6811224e-33 -0.011675436
0000c0 d5 a2 a6 bc 3f c4 be 3d 4f 2f b4 3a 64 7b 2f 97
       -0.020341316 0.09314775 0.0013747009 -5.670129e-25
0000d0 d6 b8 5e bc a2 e1 df 3d 6c ce d0 b0 91 2e eb ba
       -0.013593873 0.10931708 -1.519266e-09 -0.0017942955
0000e0 98 d0 a0 bc 6d dc 20 3d 46 8a d9 3d 65 4b 87 3d
       -0.019630715 0.039272714 0.10622077 0.06606177
0000f0 e0 30 7e 3d aa a4 a5 a3 88 e7 02 bd d4 95 3d b7
       0.06205833 -1.7959074e-17 -0.031959087 -1.1300162e-05

lin2.weight f4 [1, 64]
000000 fc c2 ca bd 4b 12 00 3b d3 65 a3 3b eb 76 51 34
       -0.099004716 0.0019542153 0.0049865036 1.9507904e-07
000010 65 eb e3 bd 41 55 c9 bd e6 b4 00 be d3 34 ce bd
       -0.11128882 -0.09830714 -0.12569007 -0.10068669
000020 e6 65 8f 3c 07 00 3e be b2 88 b5 3a 8c 77 68 3c
       0.017504644 -0.18554698 0.0013849942 0.014188658
000030 33 a2 c2 bd ac 2b e5 ba b8 cc 91 b1 33 2d d0 bd
       -0.09503593 -0.0017484329 -4.2433292e-09 -0.10164871
000040 bb 62 5b 3f 58 2a f7 bd da 41 ec bd 17 a5 e5 bd
       0.85697526 -0.12068623 -0.11535998 -0.11213129
000050 a0 50 ca bd aa 7b cf bd 7e 0d cf 3a 79 ef 3b 3b
       -0.09878659 -0.10131009 0.0015796868 0.0028676672
000060 45 c7 df 33 14 be f5 39 fd 32 c3 3a 3e f5 5e 38
       1.04204936e-07 0.0004687166 0.0014892515 5.3157324e-05
000070 7a 77 f8 bd 6d 2a af bd ea 1d e3 bd f5 39 72 3c
       -0.12132163 -0.08553014 -0.1108969 0.014784326
000080 09 f0 75 bb de c7 2e 3c 56 50 c6 bd 79 b7 0c 3b
       -0.0037527105 0.010667769 -0.096832916 0.0021471663
000090 64 30 47 be 27 c0 04 be e8 65 bc bd d3 9c a3 3c
       -0.19452053 -0.12963925 -0.091991246 0.01997224
0000a0 c2 5e 20 be 6d 48 cd bd e9 29 3f 01 7e 45 e9 3b
       -0.15661147 -0.1002358 3.5111229e-38 0.00711888
0000b0 ec 5b 33 ba e7 93 98 be 1b ae cf b6 63 5c f4 bd
       -0.00068420055 -0.2980034 -6.1893493e-06 -0.11931684
0000c0 dd df 57 be e8 bc db bd b9 0f 94 3a 40 f5 b0 01
       -0.21081491 -0.107293904 0.001129619 6.5004106e-38
0000d0 ca 51 e0 3b 87 fa 03 be 22 1a 38 b9 fa 6d b6 3b
       0.0068456875 -0.12888537 -0.00017557343 0.0055673094
0000e0 2b b2 b8 bd 70 0d 2e be 21 4a f8 bd 59 97 cc bd
       -0.09018358 -0.16997313 -0.12123514 -0.09989805
0000f0 75 dc c2 bd 36 3e ad 01 56 fe 04 be 1a 9e f1 39
       -0.09514705 6.363943e-38 -0.12987646 0.00046084897
