backend/gnn_comprehensive.pth (torch, 59076 bytes, 10 tensors)

conv1.bias f4 [64]
0	0xbd04a8a4	-0.03238739
1	0xbcf30f9a	-0.029670525
2	0xbcdb28e0	-0.02675289
3	0xbcc8318d	-0.02443769
4	0xa21183e4	-1.9720987e-18
5	0xbe8b37aa	-0.27190906
6	0xbdc6bd34	-0.097040564
7	0x3d75a1e4	0.059968844
8	0xba4207b3	-0.000740166
9	0xbbfc38d2	-0.007697203
10	0xbe0af0bf	-0.135684
11	0xbc8809a9	-0.016606169
12	0xb7dd402d	-2.6375137e-05
13	0xbddba949	-0.10725648
14	0xbd980848	-0.074234545
15	0xbd0d3a8b	-0.03447966
16	0xbd126b55	-0.03574689
17	0xb8b6db4e	-8.719285e-05
18	0x3c2241c3	0.009903374
19	0xbd8ce5a2	-0.068797365
20	0xba98f636	-0.0011670056
21	0x3d699cb4	0.05703421
22	0xb3621432	-5.2638093e-08
23	0xbc968ef7	-0.018378718
24	0xbbe6042c	-0.0070195403
25	0xbca1cf69	-0.019752221
26	0xb96c2034	-0.0002251871
27	0xbc62ec2b	-0.013850252
28	0xbc40dc69	-0.0117713
29	0xbc261bdf	-0.010138481
30	0xbd13efb6	-0.036117278
31	0xbd5404d8	-0.05176243
32	0xbc7756ee	-0.015096409
33	0x3d8f2592	0.06989588
34	0xbd31ac6c	-0.043377325
35	0xbc83fb1d	-0.016110951
36	0xbdc7bfbb	-0.097533666
37	0xbdd17c66	-0.10228805
38	0xb7e59b88	-2.7371352e-05
39	0xbaefe61e	-0.0018302833
40	0xb58272d3	-9.719173e-07
41	0xbe00cbae	-0.12577698
42	0xbc83345a	-0.016016174
43	0xbded7857	-0.11595219
44	0xbd06e295	-0.03293093
45	0x3d18a102	0.037262924
46	0xa4743c6a	-5.296024e-17
47	0xba25b17c	-0.0006320698
48	0xbc91a4a1	-0.017778696
49	0xbd73b5ea	-0.05949966
50	0xbcbeb4a5	-0.023279497
51	0xba6d5b37	-0.00090544246
52	0x3db34529	0.08753426
53	0x3c53299b	0.0128883375
54	0xbc94bdcc	-0.018156908
55	0x3c9260f2	0.017868493
56	0x3d568d07	0.052380588
57	0x3da52118	0.08062953
58	0xbdc9a126	-0.0984519
59	0x3bd181b8	0.0063936375
60	0x9d9335e6	-3.8966306e-21
61	0xbc9a32c6	-0.018823039
62	0xa9907faa	-6.417031e-14
63	0xbe1483aa	-0.14503351

conv1.lin.weight f4 [64, 7]
0	0x3df5e7a2	0.12007071
1	0xbedb8733	-0.42876586
2	0x3e37e01e	0.17956588
3	0xbddc9e44	-0.10772374
4	0x3dbf779d	0.09348986
5	0x3ca2f6d8	0.019893095
6	0x3dff19db	0.124561034
7	0xbe05db36	-0.13071904
8	0x3de3e5b5	0.111277975
9	0xbf462430	-0.7739897
10	0x3e5f17cc	0.21786422
11	0xbf17e812	-0.59338486
12	0xb8900246	-6.8668785e-05
13	0x3e935c93	0.28781566
14	0xbcca62e9	-0.024705367
15	0xbc92fe2f	-0.01794347
16	0x2c405d6d	2.7336703e-12
17	0xbc0e93f3	-0.008702266
18	0xbc134de9	-0.008990743
19	0x01b1055e	6.5027233e-38
20	0xbc9969d1	-0.018727215
21	0x3e353434	0.17695695
22	0x3cb1d095	0.021705905
23	0x3faceb9c	1.3509402
24	0xbe99214e	-0.29908222
25	0x3ee8d199	0.4547241
26	0x3ce61d09	0.028090017
27	0xbe7d6b76	-0.24748024
28	0x00140604	1.838868e-39
29	0x81807db4	-4.720015e-38
30	0x81aee7c8	-6.4250095e-38
31	0x8126290c	-3.0518834e-38
32	0x819f41a4	-5.8501565e-38
33	0x013a2bbc	3.4194182e-38
34	0x809b3581	-1.4253695e-38
35	0x3e8bb8d2	0.27289444
36	0xbe9855d9	-0.29752997
37	0x3ed7d4e6	0.42154616
38	0x3e1e157b	0.15437882
39	0x3e025668	0.12728274
40	0x3d2f22f9	0.042757962
41	0xbefe3600	-0.49650574
42	0x3e2bebfe	0.16789243
43	0x3c9e1860	0.019298732
44	0x3f4353fe	0.76300037
45	0xbe2c285c	-0.16812271
46	0x3f375b6e	0.71623886
47	0x3d0633af	0.032764133
48	0xbe863c42	-0.26217848
49	0xbcc573bf	-0.024103044
50	0xbcb76d2e	-0.022390928
51	0x3b198f97	0.0023431533
52	0x04ca8ca9	4.7619148e-36
53	0x81842b10	-4.8550934e-38
54	0x01a061ef	5.8915245e-38
55	0xbcaa0d7e	-0.020758387
56	0x3a54a3b7	0.00081115536
57	0xbc3510d5	-0.011051376
58	0xbad75164	-0.0016427455
59	0x3d9c9ce9	0.07647116
60	0xbbaf012f	-0.0053407173
61	0x816a3e08	-4.3023517e-38
62	0xbd998f0b	-0.074979864
63	0x3d319024	0.043350354
64	0x3ead920e	0.33900493
65	0xbe279898	-0.16366804
66	0xbed5337e	-0.41640848
67	0xbe14a906	-0.14517602
68	0xbc630242	-0.013855519
69	0xbd4864b5	-0.048924167
70	0x3daa38a3	0.08311584
71	0xbe8af54e	-0.27140278
72	0x3ee26d10	0.44223833
73	0x3ea723a7	0.32644388
74	0xbe326106	-0.17419824
75	0x3d6d256a	0.05789701
76	0xbd4f4bbb	-0.05060933
77	0xbcdf6ff8	-0.02727507
78	0xbca2509f	-0.019813834
79	0x00601932	8.825246e-39
80	0xbc1720d0	-0.009224132
81	0xbb62df0a	-0.0034617805
82	0x802605e6	-3.491865e-39
83	0xbcbeb618	-0.023280188
84	0x009b2a79	1.4249738e-38
85	0x0184981c	4.870741e-38
86	0x013876dd	3.3880743e-38
87	0x01688744	4.2708719e-38
88	0x00eb6560	2.1617708e-38
89	0x8119abcc	-2.822492e-38
90	0x00b00f77	1.6168595e-38
91	0x3df2159a	0.118205264
92	0xbdcc2886	-0.09968667
93	0xbecc9c1f	-0.3996286
94	0x3db228f3	0.08699217
95	0xbf36c8ea	-0.7140032
96	0x3b53a97f	0.0032297072
97	0xbdaf9996	-0.08574216
98	0x3e2e241c	0.17005962
99	0xbe00c0c9	-0.12573542
100	0x3ee8076c	0.45318162
101	0x3f00bf14	0.5029156
102	0xbe00c435	-0.12574847
103	0x3d532a3f	0.05155396
104	0xbeb0ede0	-0.34556484
105	0xbdcf72c0	-0.10129309
106	0xbd381c9d	-0.044949163
107	0xbd933177	-0.07187169
108	0x3f13ee28	0.5778527
109	0xbe7cfdf4	-0.2470625
110	0x01ae5b48	6.404849e-38
111	0x3e55739f	0.20844887
112	0x3e21ac1d	0.15788312
113	0xbe000b63	-0.12504344
114	0x3fad40ee	1.353544
115	0x3e019437	0.12654196
116	0x3f38adea	0.7214037
117	0x3daf9d7d	0.085749604
118	0xbea340c0	-0.31885338
119	0x008203dd	1.194e-38
120	0x005a522c	8.294672e-39
121	0x01142000	2.7206266e-38
122	0x80ada276	-1.5945821e-38
123	0x011c672e	2.8726703e-38
124	0x0135f0c8	3.3417202e-38
125	0x006fb56a	1.0258819e-38
126	0x3e5b30b0	0.21405292
127	0xbee0975a	-0.43865472
128	0x3eb6dbd0	0.3571458
129	0x3d57c3a4	0.05267681
130	0xbebb6fd1	-0.36608747
131	0x3d31ee34	0.04344006
132	0xbd8dd1a8	-0.069247544
133	0x3d011c6d	0.03152125
134	0xbe21a479	-0.15785398
135	0xbe99745d	-0.2997159
136	0x3bd8a431	0.00661137
137	0xbe519a7f	-0.20469092
138	0x3c41ef86	0.011836892
139	0x3e6e81c0	0.23291683
140	0xb07c5669	-9.179986e-10
141	0x8d7aface	-7.7339093e-31
142	0x81bf8a63	-7.0360894e-38
143	0x80002e65	-1.6643e-41
144	0x0108e7ba	2.514551e-38
145	0x01396e58	3.40583e-38
146	0xa63b3e29	-6.49629e-16
147	0xbda74c17	-0.0816881
148	0x3c55fcdf	0.013060777
149	0x808377a2	-1.2073366e-38
150	0xb9030996	-0.00012496705
151	0xb386b57c	-6.272873e-08
152	0x80f87c3a	-2.2819767e-38
153	0x3cbb42a5	0.022858927
154	0xaff68d55	-4.4847562e-10
155	0x925f0f73	-7.0385435e-28
156	0x002f643d	4.352227e-39
157	0x00322ec6	4.608554e-39
158	0x813749ca	-3.3664733e-38
159	0x817cf0b8	-4.6457797e-38
160	0xa477ce4f	-5.3734337e-17
161	0x3e167a73	0.14695148
162	0xbed1f597	-0.41007683
163	0xbeeb8887	-0.460026
164	0xbe9e3db8	-0.30906463
165	0xbef36ef0	-0.47545576
166	0x3c9b435e	0.018953022
167	0x3def66ca	0.11689527
168	0xbbe2ba23	-0.006919162
169	0xbb219f30	-0.0024661534
170	0x811e5320	-2.9079656e-38
171	0xbb280f98	-0.002564406
172	0xb9f44c96	-0.00046596368
173	0x801e5108	-2.784133e-39
174	0xbb848a10	-0.0040447786
175	0xbe290fff	-0.16510008
176	0xbc6443ff	-0.013932227
177	0xbe9e050f	-0.30863234
178	0x3f288a2c	0.65835834
179	0xbe788a6a	-0.24271551
180	0x805b71d6	-8.397867e-39
181	0x3e8e0b16	0.27742833
182	0xbceedfb4	-0.029159404
183	0xbcc690e7	-0.024239017
184	0xb2599766	-1.2665486e-08
185	0xbca02aa5	-0.019551584
186	0xb8e4aa8e	-0.000109036555
187	0x00ec0eb8	2.1678457e-38
188	0xbcd88e4d	-0.026435042
189	0xbb644a7e	-0.003483444
190	0x3eb57212	0.3543859
191	0x3d96863e	0.073498234
192	0xbe6bdd9d	-0.23033758
193	0x3e4554d4	0.1927064
194	0x3b6efaea	0.0036465474
195	0xbdbfd291	-0.09366334
196	0x97bbd9d0	-1.2139575e-24
197	0x00600289	8.817117e-39
198	0x00563734	7.917656e-39
199	0x80af8c6a	-1.6121583e-38
200	0x809168a8	-1.335369e-38
201	0x00ac95b8	1.5849414e-38
202	0x80d5bc0a	-1.9628416e-38
203	0xbd9f3895	-0.07774464
204	0x3ee0e97e	0.4392814
205	0xbf1e6d79	-0.6188579
206	0xbeabc0d4	-0.33545554
207	0xbe00f0c6	-0.12591848
208	0xba82d0b4	-0.0009980411
209	0x3d7fa188	0.062409908
210	0x3cdfbbfe	0.027311321
211	0x3e9a75e5	0.3016807
212	0x3e13db17	0.14439045
213	0xbef1e182	-0.4724236
214	0x3eb8d71e	0.3610162
215	0x3c20f745	0.009824579
216	0x3cced943	0.025250083
217	0x3da3780c	0.079818815
218	0x3e5beb37	0.21476446
219	0xbe2b30f0	-0.16717887
220	0xbdc32752	-0.09528984
221	0xbee88bc7	-0.45419142
222	0x3bf64630	0.007515691
223	0xbe42f0bf	-0.1903715
224	0xbaae0101	-0.0013275446
225	0xb605b534	-1.9924018e-06
226	0xb0f7bfd8	-1.8026141e-09
227	0xb0a20eee	-1.1791295e-09
228	0xb1304cb9	-2.5654983e-09
229	0x003567a8	4.904466e-39
230	0xb8331083	-4.2692303e-05
231	0xbd0d6bb5	-0.034526546
232	0xbcf2a893	-0.029621398
233	0x3b1be61e	0.0023788284
234	0x8099eb58	-1.4135256e-38
235	0x80fcf2ce	-2.3229647e-38
236	0x010f6bfc	2.6342427e-38
237	0xbcde64b0	-0.02714762
238	0x3d5f3ae9	0.05449954
239	0x3e1dcaf4	0.15409452
240	0x3f76e21a	0.96438754
241	0xbebb1f96	-0.36547536
242	0x3f366ac5	0.7125667
243	0xbbe5505e	-0.006998106
244	0xbd39e813	-0.04538734
245	0x3dff940b	0.12479409
246	0xbe76a728	-0.24087203
247	0xbe986dbe	-0.29771227
248	0x3e94d720	0.29070377
249	0xbf1fa818	-0.62365866
250	0x3c5e5630	0.013570353
251	0xbd9206ed	-0.07130227
252	0x3dfd9647	0.12382179
253	0x39a959d6	0.00032301125
254	0xbe6fed71	-0.2343042
255	0xbe245943	-0.16049676

conv2.bias f4 [64]
0	0x3cfa5ed6	0.0305628
1	0x3c8652d7	0.016396923
2	0xbdbd3097	-0.092377834
3	0x3dbefe4a	0.093258455
4	0x3e08b9af	0.13352083
5	0xbd409d79	-0.047025178
6	0x8aaf5e5b	-1.688738e-32
7	0xbdd30aac	-0.1030477
8	0xbd39b521	-0.045338754
9	0x3cc498dc	0.02399867
10	0x3cf1555c	0.029459648
11	0x3e238fe9	0.15972866
12	0x3ddb2dd5	0.10702101
13	0x3e115fa8	0.14196646
14	0x3cf988be	0.030460712
15	0x3e0a3a9f	0.13498925
16	0xbbf7a555	-0.007557551
17	0x3c5c75f9	0.013455861
18	0xbdb9e9dd	-0.09077809
19	0x3e13dc49	0.14439501
20	0x3d568faa	0.052383102
21	0xbd95bc92	-0.073113576
22	0x3d41faea	0.04735843
23	0xbd9e6ad6	-0.07735221
24	0xbd8d7aee	-0.069082126
25	0xbca38f67	-0.01996584
26	0x3da13952	0.07872261
27	0x3d1eb86d	0.0387501
28	0x3d007976	0.031365834
29	0x3e20b0c3	0.15692429
30	0x3cfae6af	0.030627577
31	0x3c8f1916	0.017468017
32	0xbcb5ef66	-0.02220888
33	0x3e006347	0.12537871
34	0xbc9ed549	-0.019388812
35	0x3e0858e4	0.13315159
36	0x3a99b1b5	0.0011725934
37	0x3dd607d8	0.10450715
38	0x3c871de5	0.016493747
39	0xb4862378	-2.4985252e-07
40	0x3db0a546	0.086252734
41	0x3d3fe2a1	0.04684699
42	0x3e28909f	0.16461419
43	0x3de67f07	0.11254697
44	0x3c6d0488	0.014466412
45	0xbd8c228f	-0.06842529
46	0x3b734118	0.0037117656
47	0x3ca0d892	0.019634519
48	0x38d356da	0.000100774414
49	0x3e180f8e	0.14849684
50	0x3e039d17	0.12852894
51	0x3da2026b	0.079106174
52	0xad80baed	-1.4634927e-11
53	0x3d44fef5	0.04809471
54	0xbde65eb9	-0.11248536
55	0xbc071079	-0.0082436735
56	0x3dc1a89b	0.09455987
57	0xb9c38f99	-0.00037300287
58	0x3ca2db0c	0.01987984
59	0x3d0c3120	0.034226537
60	0xb5aa45a6	-1.2686257e-06
61	0xb790fe24	-1.7284481e-05
62	0x3e34e933	0.17667083
63	0x3b3b29ac	0.0028558774

conv2.lin.weight f4 [64, 64]
0	0xbe2c944f	-0.1685345
1	0xbc7efacf	-0.015562727
2	0xbb8841bd	-0.0041582272
3	0xbda32d8e	-0.07967673
4	0x00a35adb	1.5001779e-38
5	0xbe3ee978	-0.18643749
6	0x3d0d9fbc	0.034576163
7	0xbd3c2184	-0.0459304
8	0x3c18ee38	0.0093341395
9	0x3e7d2eed	0.24724932
10	0xbdbbd84a	-0.09172113
11	0xb8747408	-5.8282196e-05
12	0x80d5b247	-1.9624915e-38
13	0xbe545f61	-0.20739509
14	0xbe20e6ad	-0.15712996
15	0xbe3a4e24	-0.18193871
16	0xbdfd7b77	-0.12377065
17	0x00292493	3.778376e-39
18	0xbdde1a8c	-0.10844907
19	0xbe02cbd8	-0.12773073
20	0x80f83491	-2.279406e-38
21	0xbdca2074	-0.09869471
22	0x8187e189	-4.9914795e-38
23	0xbe2e64ba	-0.17030612
24	0x34f8af6d	4.632124e-07
25	0xbdf4c396	-0.119513676
26	0xbb77fde7	-0.0037840547
27	0x3e4122fb	0.18861
28	0x00ed4ab0	2.1791805e-38
29	0x3e2d01d2	0.16895226
30	0x3e23d462	0.15998986
31	0xbe535276	-0.20636925
32	0x3c2a745b	0.010403718
33	0x3ccb8268	0.024842456
34	0xbd16e53b	-0.036839705
35	0xbdad227c	-0.08453843
36	0x3d82c50b	0.06385239
37	0x3e6315ad	0.22176237
38	0x8126cbb4	-3.0635535e-38
39	0x80589420	-8.134661e-39
40	0x0051513c	7.467817e-39
41	0x3ccb6314	0.024827518
42	0xbdbf072d	-0.093275405
43	0xbe2e37b0	-0.1701343
44	0x3ddbc806	0.10731511
45	0xbdee9bc7	-0.11650806
46	0x80c8caf1	-1.8439901e-38
47	0x8108e4c0	-2.5143375e-38
48	0x3deaf743	0.11472943
49	0x3daa5a00	0.083179474
50	0x349b1ce1	2.8892012e-07
51	0xbbede4c3	-0.0072599365
52	0xbb418be1	-0.0029532837
53	0xbe6a74e8	-0.22896159
54	0xbd0a2f85	-0.033736724
55	0xbd3864a6	-0.04501786
56	0xbd0ae292	-0.03390748
57	0xbd92ada2	-0.07162024
58	0xbd0febfb	-0.035137158
59	0xbcea10a9	-0.028572397
60	0x80c4dd31	-1.8079106e-38
61	0x3a958176	0.001140638
62	0x81832cfa	-4.818634e-38
63	0xbe1724cb	-0.14760129
64	0xbeb7227e	-0.35768503
65	0xbd5fab9b	-0.054607015
66	0x3b385e15	0.002813225
67	0xbe969a85	-0.29414764
68	0x81b0c913	-6.4940717e-38
69	0x39e8e0d1	0.0004441799
70	0xbe06ca9d	-0.13163228
71	0xbdbec1fd	-0.09314344
72	0x3d1bd2d9	0.038042877
73	0x3d8ea6b1	0.069653876
74	0xbe32911b	-0.17438166
75	0x396b5822	0.00022444178
76	0x8148d630	-3.688787e-38
77	0xbd8c8827	-0.068619065
78	0xbe095946	-0.13412961
79	0xbb164172	-0.0022927192
80	0xbd9b8b9f	-0.0759499
81	0x8017e2f4	-2.193632e-39
82	0xbe3e9188	-0.18610203
83	0x3e0ce765	0.13760145
84	0x81a51383	-6.0639425e-38
85	0xbda359bc	-0.079761
86	0x0115a030	2.7481907e-38
87	0xbe398633	-0.18117599
88	0x336157a2	5.2466596e-08
89	0x3cff7eae	0.031188335
90	0xbc68f987	-0.014219648
91	0x3d22fe2f	0.03979319
92	0x016d724a	4.3612024e-38
93	0x3e0e3200	0.13886261
94	0x3d15754c	0.036488816
95	0xbd8badbb	-0.06820246
96	0x3c1377ec	0.00900076
97	0xbc9e017e	-0.01928782
98	0xbe223abb	-0.15842716
99	0x3de8a646	0.11359839
100	0x3df04ad6	0.11733024
101	0x3d0923fb	0.03348158
102	0x8d1e893d	-4.8852704e-31
103	0x00062ac1	5.6635e-40
104	0x00532931	7.637123e-39
105	0xbe41bef0	-0.18920493
106	0x3e184f7d	0.14874072
107	0xbde42719	-0.1114027
108	0x3dc8b657	0.098004036
109	0xbdbc48b2	-0.09193553
110	0x018eebb2	5.250077e-38
111	0x805c3844	-8.46905e-39
112	0x3b14a67c	0.002268224
113	0xbdb45b0c	-0.08806428
114	0x3afb5b80	0.0019177049
115	0xb7c3d808	-2.3346409e-05
116	0x3d7f8a60	0.062387824
117	0xbda5160b	-0.08060845
118	0x3b324bbe	0.002720579
119	0xbd848a99	-0.06471748
120	0x3dc4c0ea	0.09607108
121	0xbda48092	-0.08032335
122	0xbcbebd1b	-0.023283532
123	0x3de24c07	0.11049657
124	0x810c33b2	-2.5751028e-38
125	0xbd16d94f	-0.036828335
126	0x819c66a2	-5.745262e-38
127	0xbe79eb5c	-0.24406189
128	0x3d0f1cd3	0.0349396
129	0x3dda8107	0.10669141
130	0x3bd5f67d	0.006529628
131	0x3cdf782b	0.02727898
132	0x0130029a	3.232796e-38
133	0x3e78a6b4	0.24282342
134	0xbd11d3b6	-0.035602294
135	0x3caa9d84	0.020827062
136	0x3c5508a6	0.01300255
137	0xbedef844	-0.43548787
138	0x3ed862d2	0.42262894
139	0x382d73de	4.1354324e-05
140	0x00b5c6e9	1.669358e-38
141	0x3e2b37b8	0.16720474
142	0x3ecad670	0.39616728
143	0x3e6ffd46	0.2343646
144	0x3e42a532	0.1900833
145	0x805f4116	-8.74772e-39
146	0x3eacbcf8	0.33737922
147	0x3dcdbc08	0.1004563
148	0x81a047fc	-5.887801e-38
149	0xbc130de9	-0.008975484
150	0x81797034	-4.581458e-38
151	0x3e1c657a	0.15273085
152	0xb68419c9	-3.9369083e-06
153	0x3e1b130d	0.15143986
154	0x3c16d82a	0.009206811
155	0xbe7377a8	-0.23776114
156	0x0149c77c	3.7060992e-38
157	0xbedbf2be	-0.42958635
158	0xbeab88f8	-0.33502936
159	0xbd222bba	-0.039592482
160	0x32e64302	2.6805996e-08
161	0xbc06dc43	-0.008231225
162	0xbe871dcd	-0.26389924
163	0x3d3c141a	0.045917608
164	0x3de1d451	0.11026824
165	0xbd48c74a	-0.04901818
166	0x800387b1	-3.24183e-40
167	0x00e7f863	2.1303104e-38
168	0x0105e91b	2.4595487e-38
169	0xbd1e3975	-0.038629014
170	0xbb90939b	-0.004412127
171	0x3decab47	0.11556106
172	0xbd538315	-0.05163868
173	0x3dffe13d	0.12494133
174	0x81af5a5c	-6.4414507e-38
175	0x0010d585	1.545964e-39
176	0x3d3bb239	0.045824263
177	0x3e07d4fd	0.13264842
178	0x37c50b39	2.3489456e-05
179	0x3d0afab3	0.03393049
180	0xbc3bad89	-0.011454948
181	0x3eb734d6	0.35782498
182	0xbe12358c	-0.14278239
183	0xbd951b58	-0.07280606
184	0xbca6469d	-0.020297343
185	0x3ddefbd0	0.10887873
186	0x3e26cd42	0.16289237
187	0x3e27162b	0.1631705
188	0x814f1766	-3.8036683e-38
189	0xbe242529	-0.160298
190	0x80d10d14	-1.919831e-38
191	0x3e28d66b	0.16488044
192	0x3cd279c6	0.025692832
193	0xbbfe44c3	-0.007759662
194	0x3a25f85f	0.00063312607
195	0xbcc1cbcb	-0.023656746
196	0x80dff9af	-2.0568885e-38
197	0x3c50e911	0.01275088
198	0xbd1d94ef	-0.038472112
199	0x3ced0c17	0.028936429
200	0xbcd52571	-0.02601883
201	0xbb16ff8d	-0.0023040504
202	0xbc49d021	-0.012317688
203	0xa806d367	-7.484335e-15
204	0x0045486c	6.36263e-39
205	0xbcf0b17f	-0.029381512
206	0xbcd12b4e	-0.025533345
207	0xbc50cc2b	-0.01274399
208	0x3ba6df7e	0.0050925603
209	0x8eb7f043	-4.5344347e-30
210	0x3d8a1e80	0.06744099
211	0xbd65efa4	-0.056136742
212	0x8016c75e	-2.0919e-39
213	0x3deadf59	0.114683814
214	0x009ebe0f	1.4578189e-38
215	0xbdc92017	-0.09820574
216	0x009f9bea	1.4657775e-38
217	0xbd3f3b0d	-0.046687175
218	0xbb91a70c	-0.0044449624
219	0xbc68cf1e	-0.014209537
220	0x99a18227	-1.6699578e-23
221	0x3b253d48	0.0025213528
222	0xbc8a7707	-0.01690246
223	0xbbf0e69d	-0.00735171
224	0x3c5302c9	0.012879082
225	0x3d188e28	0.037244946
226	0xbc411d86	-0.011786824
227	0xbd9156de	-0.07096647
228	0xbc82c3cc	-0.015962504
229	0xbd162b3c	-0.036662325
230	0x80b5ce4f	-1.6696234e-38
231	0x25798c4a	2.1644839e-16
232	0x0042f0e0	6.147552e-39
233	0xbd1b125c	-0.037859306
234	0xbcd05059	-0.025428938
235	0xbbda8b80	-0.0066694617
236	0xbd20ce1f	-0.039259072
237	0x3d8bc655	0.06824938
238	0x80582a80	-8.09677e-39
239	0x80732ade	-1.057646e-38
240	0xbcb1898c	-0.021672033
241	0xbc4b4bee	-0.01240824
242	0x91dee6bd	-3.5167628e-28
243	0xbc06286a	-0.008188346
244	0x3c62afd7	0.013835869
245	0x3db91bd9	0.09038515
246	0xbb0af929	-0.002120564
247	0xbda41c09	-0.0801316
248	0xbd4845f6	-0.048894845
249	0x3d2aac1f	0.041668054
250	0xbd4a966a	-0.049459852
251	0x3bdb45c3	0.006691666
252	0x8122723a	-2.9836654e-38
253	0xbc18ab89	-0.009318241
254	0x8166c23b	-4.2383682e-38
255	0xbc882370	-0.01661846

conv3.bias f4 [64]
0	0x3db4e74c	0.08833179
1	0x96db8e48	-3.547115e-25
2	0xbc1af914	-0.009458799
3	0x3ddb0dbd	0.1069598
4	0x3ccfc5ff	0.025362967
5	0x3d252f5a	0.04032836
6	0x3e3b8c4f	0.18315242
7	0xba16d3c8	-0.0005753604
8	0x3e570d44	0.21001154
9	0x3e290aa7	0.1650797
10	0x3e4621da	0.19348851
11	0xba8fbdbf	-0.0010966583
12	0xba4166f3	-0.00073777064
13	0x3dbdab88	0.092612326
14	0x3e3e3b8c	0.18577403
15	0x3db2fbb7	0.08739417
16	0x3d03d532	0.03218574
17	0x3cdf894d	0.02728715
18	0x3e68814a	0.2270557
19	0x3dbd6a45	0.09248785
20	0x3e4f6708	0.20254147
21	0x3dd88f09	0.10574157
22	0x3c5a3331	0.013317869
23	0x3da3e018	0.08001727
24	0xbbbff52c	-0.005858084
25	0x3c2503f5	0.010071744
26	0xbc08adab	-0.008342187
27	0x3ca2e8fc	0.019886486
28	0x3d84464b	0.0645872
29	0xaf537f06	-1.9235466e-10
30	0xb9e7bbd3	-0.00044199693
31	0x3d8820c0	0.066468716
32	0xbb809197	-0.0039236057
33	0xb751231f	-1.2465548e-05
34	0xb9079318	-0.000129294
35	0x3bf2ef2b	0.007413765
36	0x3d792e1c	0.06083499
37	0x3ddf3e27	0.109005265
38	0xba347a30	-0.00068846624
39	0x3df1afe9	0.1180113
40	0x3dab6a2e	0.083698615
41	0x3d93eace	0.0722252
42	0x3e867bb7	0.26266262
43	0xb807a0e2	-3.2336342e-05
44	0x3e0b618b	0.13611428
45	0xba9559c2	-0.0011394548
46	0x3e3a9554	0.18221027
47	0x3e7e9260	0.24860525
48	0xac32e865	-2.5424326e-12
49	0x3e42d2f8	0.1902579
50	0x3d7f9169	0.062394533
51	0x3e789c17	0.24278294
52	0x3de769bd	0.11299465
53	0x3e2bb54c	0.16768378
54	0x3e2b267f	0.16713904
55	0x3db6d79d	0.08927844
56	0x3dc3d15a	0.09561415
57	0x3e270c03	0.16313176
58	0xbe000a64	-0.12503964
59	0x3dff04f2	0.12452115
60	0x3e62e465	0.22157438
61	0x3db1624b	0.08661326
62	0x3d7d5ebe	0.06185793
63	0x3e2f37ce	0.17111132

conv3.lin.weight f4 [64, 64]
0	0x3d57e939	0.052712653
1	0xbd9d2b27	-0.07674246
2	0x3d029f3f	0.03189015
3	0xbd5b3b22	-0.05352319
4	0xbdb1e8ae	-0.08686958
5	0x3cdc49b0	0.026890606
6	0x00a7f818	1.5425527e-38
7	0x3d8b4e87	0.06802087
8	0x3d499763	0.04921664
9	0x3db489b8	0.0881533
10	0xbe37d505	-0.17952354
11	0xbdc8c3de	-0.09802984
12	0xbdcd2b87	-0.10018068
13	0xbdaa727b	-0.08322617
14	0x3d4fb205	0.050706882
15	0xbd29da3d	-0.041467894
16	0x3881ece8	6.1953266e-05
17	0x3e68d802	0.2273865
18	0xbddf225c	-0.108952254
19	0x3d7c8793	0.06165273
20	0x3c673dd9	0.014113867
21	0xbd66870a	-0.056281127
22	0x3dbabb18	0.091177166
23	0x3e875780	0.26433945
24	0x3e19124e	0.14948389
25	0x3daf13e3	0.08548715
26	0xbda2a554	-0.0794169
27	0xbda9e546	-0.082956836
28	0xbc4fa36d	-0.012673241
29	0xbd46394d	-0.04839449
30	0x3e6238f1	0.22092034
31	0xbdc43619	-0.09580631
32	0xbc6db58c	-0.014508616
33	0xbe370908	-0.17874539
34	0x3cd23669	0.02566071
35	0xbdae8ff5	-0.085235514
36	0xbd2e0656	-0.04248651
37	0x3bf137b9	0.007361379
38	0xbcbadf56	-0.022811573
39	0x332e8ea8	4.0642277e-08
40	0xbe5a41b2	-0.21314123
41	0x3ace5bbe	0.0015743894
42	0xbdb660ca	-0.0890518
43	0xbe0de42f	-0.13856576
44	0xbcd28dd0	-0.025702387
45	0x3c35ba4b	0.011091779
46	0x3cc8d263	0.024514383
47	0xbd927e49	-0.07152993
48	0xbdaab4bd	-0.08335254
49	0xbdd251bb	-0.10269495
50	0xbda52835	-0.080643095
51	0x3e7dfd89	0.24803747
52	0x8007b180	-7.06523e-40
53	0x3d40ea4c	0.047098443
54	0x3d476c57	0.048687305
55	0x3e8dfa49	0.27730015
56	0xbd9763ea	-0.07392104
57	0x3691b05e	4.3418686e-06
58	0x3d5423e4	0.05179204
59	0xbba771f8	-0.0051100217
60	0x30d4ba3d	1.5477962e-09
61	0x3641d3dc	2.888256e-06
62	0xbdd05c48	-0.10173851
63	0x3e1539b3	0.14572792
64	0x80fa1ebf	-2.2969904e-38
65	0x80180f9c	-2.209651e-39
66	0x017304d5	4.4635518e-38
67	0x015a2237	4.0064824e-38
68	0x807c6656	-1.1424313e-38
69	0x813335a2	-3.2915587e-38
70	0x81858e1f	-4.906042e-38
71	0x811323e2	-2.702538e-38
72	0x953a6200	-3.763971e-26
73	0x811adb49	-2.8442662e-38
74	0x80d7a909	-1.980527e-38
75	0x810740a4	-2.484196e-38
76	0x80cfdcfc	-1.9089222e-38
77	0x811a2d14	-2.8317675e-38
78	0x9d28be64	-2.2333045e-21
79	0x81319c4a	-3.2621898e-38
80	0x81ae0d3c	-6.3936496e-38
81	0x0074b995	1.0719492e-38
82	0x81921c64	-5.367267e-38
83	0x003a1673	5.334512e-39
84	0x007f7f9b	1.1708884e-38
85	0x81a2aaa3	-5.9754253e-38
86	0x0061b9fc	8.974762e-39
87	0x9f262d94	-3.518957e-20
88	0x808bb797	-1.2830994e-38
89	0x816a2973	-4.300875e-38
90	0x809274cb	-1.344988e-38
91	0x8ffda013	-2.5009384e-29
92	0x008b4ea8	1.279335e-38
93	0x819a29ce	-5.663065e-38
94	0x0065031a	9.276498e-39
95	0x00a8797c	1.5471944e-38
96	0x804bd60b	-6.964446e-39
97	0x80412d07	-5.98546e-39
98	0x006d2974	1.002494e-38
99	0x80daf082	-2.0106416e-38
100	0x011b2502	2.8495556e-38
101	0x80b31e56	-1.6449436e-38
102	0x00e8abca	2.1367461e-38
103	0x00a1c520	1.485623e-38
104	0x8137ca1c	-3.3756798e-38
105	0x00854ab8	1.2240925e-38
106	0x80d415f5	-1.9477002e-38
107	0x81131cf2	-2.7020403e-38
108	0x0047ccf2	6.593841e-39
109	0x95b74bd1	-7.403273e-26
110	0x87556008	-1.605256e-34
111	0x0103bbbc	2.4195593e-38
112	0x0065b1d6	9.33918e-39
113	0x80e1b434	-2.0727631e-38
114	0x8120bb4a	-2.9521732e-38
115	0x00594c7d	8.200798e-39
116	0x8180a396	-4.725451e-38
117	0x00460df2	6.433487e-39
118	0x018d092c	5.180838e-38
119	0x9b7971db	-2.0633586e-22
120	0x80620f4e	-9.005369e-39
121	0x81abb7d0	-6.307924e-38
122	0x004cb9aa	7.046101e-39
123	0x0042cf3b	6.135483e-39
124	0x014d6139	3.7722307e-38
125	0x8113422b	-2.704711e-38
126	0x812a636a	-3.1295395e-38
127	0x006d8e3d	1.0061095e-38
128	0xbcd4f4dc	-0.025995664
129	0xbca41421	-0.02002913
130	0x3ba9bd23	0.0051800176
131	0xbc8ef48e	-0.017450597
132	0x3b6e0eeb	0.003632481
133	0xbc7e390f	-0.0155165335
134	0x00f2e6f6	2.2307043e-38
135	0xbb660452	-0.003509779
136	0x3c1d7fb1	0.009612964
137	0xbc2dbad0	-0.010603622
138	0x3ad6b72b	0.0016381493
139	0x3c085948	0.008322068
140	0xbd0ba11f	-0.034089204
141	0xbd6a8aac	-0.057261154
142	0xbd64e8e7	-0.055886175
143	0xbbce0911	-0.006287702
144	0x38990aa5	7.297591e-05
145	0xbdb9c2a9	-0.090703316
146	0xbca196aa	-0.019725163
147	0x398956b6	0.0002619528
148	0x3cc03930	0.02346477
149	0x3cb6870b	0.02228119
150	0x3d13bedd	0.036070693
151	0x3c4c10dd	0.012455192
152	0x3d58b9e6	0.05291166
153	0xbc2609fa	-0.010134215
154	0xbaa2356a	-0.0012375538
155	0x3c794392	0.015213864
156	0xbc002486	-0.007821208
157	0x3d7a1c9a	0.061062433
158	0xbdb5c646	-0.08875708
159	0x3c093ced	0.008376342
160	0xbd363bfb	-0.044490796
161	0xbcae6c82	-0.021291975
162	0xbd35815d	-0.044312824
163	0xbd2ec4cf	-0.04266816
164	0xbc8bbdae	-0.01705822
165	0xbd8c2b5a	-0.06844206
166	0xbb4a5218	-0.0030871686
167	0x3265350b	1.3341615e-08
168	0xbb28ccde	-0.0025756876
169	0xbd56ed2a	-0.05247227
170	0xbd367d4b	-0.044553082
171	0x39d473ab	0.0004052197
172	0xbbc273b1	-0.0059342016
173	0xbc4d4fe7	-0.012531257
174	0xbcee6f04	-0.02910567
175	0xba622da5	-0.00086280174
176	0x3a156abf	0.00056998053
177	0xbd0ac663	-0.033880603
178	0x3bc0a333	0.00587883
179	0xbd2eb0a5	-0.04264893
180	0x00585b31	8.114237e-39
181	0xbb860169	-0.0040895236
182	0xbc929c32	-0.017896745
183	0x3d21696e	0.039407186
184	0xbc171466	-0.009221172
185	0xb5bf706c	-1.4263328e-06
186	0xbb920040	-0.004455596
187	0x3c172acc	0.009226512
188	0x89b83176	-4.43429e-33
189	0xb17b7803	-3.6593526e-09
190	0x3c8b6c9a	0.017019559
191	0xbd49089f	-0.049080487
192	0xbd82a0f9	-0.06378359
193	0xbda23a07	-0.07921224
194	0xbdb9d15e	-0.09073137
195	0x3d1a9f92	0.037749834
196	0x3c97910e	0.018501785
197	0xbd114fa6	-0.03547635
198	0x80c34702	-1.7933395e-38
199	0xbc779063	-0.015110108
200	0xbd45b9d1	-0.04827291
201	0xbddebfb3	-0.108764075
202	0xbd64f8e0	-0.05590141
203	0xbc166ec3	-0.009181681
204	0x3e2df25f	0.16986988
205	0xbd8dc27a	-0.06921859
206	0xbd8f13a3	-0.06986167
207	0x3d309d0b	0.043118518
208	0xbc5b7600	-0.013394833
209	0xbd09d047	-0.033645894
210	0xbd34b63f	-0.044119116
211	0xbcca11e3	-0.024666732
212	0xbd2979ed	-0.041376043
213	0xbc2381ad	-0.009979648
214	0x3d4559ac	0.04818122
215	0xbd93402c	-0.07189974
216	0xbdbefded	-0.09325776
217	0x3d07dc4e	0.033169083
218	0x3d6113f4	0.05495067
219	0xbd66330a	-0.05620102
220	0xbbe98551	-0.0071264883
221	0x3ced6b3e	0.028981801
222	0x3bdb701b	0.0066967136
223	0xbcc3ead4	-0.023915686
224	0x3cc3d716	0.023906272
225	0x3d291457	0.041279163
226	0x3cab17d0	0.020885378
227	0xbd89b7ed	-0.06724534
228	0xbdd0688a	-0.10176189
229	0x3d38b27f	0.045092102
230	0xbd580a4b	-0.05274419
231	0xad7d0086	-1.4381501e-11
232	0xbca97c51	-0.020689161
233	0xbd441cde	-0.047879092
234	0x3de9c0fe	0.114137635
235	0x3d7923e7	0.060825255
236	0x3b74b8d4	0.0037341611
237	0xbe0d7f1b	-0.13818018
238	0xbd49f917	-0.049309816
239	0x3c769fd3	0.0150527535
240	0xbc826fa6	-0.015922379
241	0x3dbfe896	0.09370534
242	0x3dea2f28	0.114347756
243	0x3d19e075	0.037567575
244	0x016f9e95	4.4011144e-38
245	0x3d2188e3	0.039437186
246	0xbd4e4798	-0.050361246
247	0xbdb45350	-0.08804953
248	0xbd9770a3	-0.073945306
249	0x2d75eb36	1.3978865e-11
250	0xbcd88d87	-0.026434673
251	0x3d19a4ed	0.0375108
252	0x8c138ef7	-1.136749e-31
253	0x30ddaa0d	1.6128198e-09
254	0x3e115aba	0.14194766
255	0x3c90f992	0.01769713

lin1.weight f4 [64, 64]
0	0x3d826cf9	0.06368441
1	0x80fdca22	-2.3306892e-38
2	0xbb3ac8ad	-0.002850096
3	0xbc2d453b	-0.010575588
4	0xbdd08883	-0.101822875
5	0xbe36c919	-0.1785015
6	0x3e33381d	0.17501874
7	0x3b8fdf74	0.0043906514
8	0xba969ef6	-0.0011491466
9	0xbabad249	-0.0014253344
10	0x3e14ebb8	0.14543045
11	0x8e7d0f21	-3.1191942e-30
12	0xbb49255e	-0.0030692439
13	0xbc8738b3	-0.016506528
14	0x3e111e63	0.14171748
15	0xbc6dbd34	-0.014510442
16	0x3d509fbf	0.050933596
17	0x3b92ee5c	0.004483981
18	0x3e164113	0.14673261
19	0xbe4d4323	-0.20045142
20	0xbca5fe67	-0.02026291
21	0x3dea6041	0.1144414
22	0xbcb83e49	-0.022490637
23	0x3dd50335	0.10401002
24	0x39a75bfb	0.00031921253
25	0xbd2879f2	-0.04113192
26	0xab787a37	-8.8276906e-13
27	0x3d389dd3	0.045072388
28	0xbb0531e6	-0.0020323931
29	0xb6ea4911	-6.9822495e-06
30	0x8f042ef7	-6.5171476e-30
31	0x3d8e4704	0.06947139
32	0x3d873693	0.06602206
33	0xb77956ea	-1.4861793e-05
34	0xb1a3d53e	-4.768167e-09
35	0xbccfb19a	-0.025353242
36	0x3d772f43	0.060347807
37	0xbc186a93	-0.009302753
38	0x35f90cd3	1.8555678e-06
39	0x3df4d62e	0.11954914
40	0xbe3d0818	-0.18460119
41	0xbc911df3	-0.017714476
42	0x3e1dda8b	0.15415399
43	0x000ca24a	1.160244e-39
44	0x3c8e6c9c	0.017385773
45	0xb619572f	-2.2849524e-06
46	0x3a881128	0.001038109
47	0x3bef3fe0	0.0073013157
48	0x81b22d65	-6.545201e-38
49	0xbce542fa	-0.027986038
50	0xbd008e9e	-0.03138601
51	0x3b9606c1	0.004578442
52	0xbbf65e49	-0.007518564
53	0x3dd48967	0.1037777
54	0xbc582533	-0.013192463
55	0xbc48aecd	-0.012248707
56	0x3d6cdd7d	0.057828415
57	0xbb07fc89	-0.0020749888
58	0xbd88dad9	-0.06682367
59	0xbb5c1d0b	-0.0033586647
60	0x3b3ff845	0.0029292267
61	0xbe326d1e	-0.17424437
62	0xbbfb05cf	-0.0076606045
63	0xbcadad77	-0.021200879
64	0x3de1a6f5	0.11018173
65	0x00ba97e6	1.7135893e-38
66	0x3a1c07dc	0.0005952099
67	0x3ccaba8b	0.024747154
68	0xbd887216	-0.06662385
69	0xbeb78697	-0.3584487
70	0x3daecd72	0.08535279
71	0x3acf3ebf	0.0015811546
72	0x3d3022e6	0.04300203
73	0x3db66fe4	0.0890806
74	0x3d10fbee	0.03539651
75	0xaef248cd	-1.1017818e-10
76	0xba5c03c8	-0.00083928974
77	0x3d9c1c0d	0.07622538
78	0x3da53015	0.080658115
79	0xbd154113	-0.036439013
80	0xba413190	-0.0007369751
81	0x3b8789c5	0.0041362965
82	0x3d1c516b	0.038163584
83	0xbeb0eb73	-0.34554633
84	0x3d2af4c2	0.041737325
85	0x3d951d70	0.072810054
86	0xbd0dacbe	-0.034588568
87	0x3d892dfb	0.06698223
88	0x3a514dd5	0.0007984315
89	0xbd2f785a	-0.042839386
90	0xb8067c77	-3.2064007e-05
91	0x3d5beac8	0.0536907
92	0xbcc31dec	-0.023817979
93	0xb3046b25	-3.0831092e-08
94	0x2f63e3e5	2.0726494e-10
95	0x3dbcf2c9	0.09225995
96	0xb90b3142	-0.00013274423
97	0x309ffceb	1.1640656e-09
98	0x38337dcd	4.2794087e-05
99	0xbd2ea809	-0.04264072
100	0xbd2712c1	-0.04078937
101	0x3c33d38c	0.01097573
102	0xb4da522c	-4.0665452e-07
103	0x3cb99518	0.022654101
104	0xbeafafd7	-0.34313843
105	0x3d007287	0.03135922
106	0x3da8ec01	0.08248139
107	0x90bfff7a	-7.572984e-29
108	0xbd84d688	-0.06486231
109	0xb46a8495	-2.1841181e-07
110	0x3cc645e5	0.02420325
111	0x3df05cbc	0.11736438
112	0xa466f7d6	-5.0083225e-17
113	0x3df0d992	0.11760248
114	0x3d29b6c9	0.041434083
115	0x3a71f502	0.00092299294
116	0x3d664618	0.05621919
117	0x3c9bc027	0.019012524
118	0x3df345ac	0.11878523
119	0x3d25d718	0.040488333
120	0x3dce13aa	0.10062344
121	0x3d20e17e	0.039277546
122	0x3e147b42	0.14500144
123	0x3c049000	0.008090973
124	0x3bab94b8	0.0052362345
125	0xbe1e99e5	-0.15488394
126	0x3d0c517e	0.034257405
127	0x3dbdb42a	0.09262879
128	0x3e3f5bf9	0.18687429
129	0x01ab3da6	6.290394e-38
130	0xbd606db7	-0.054792132
131	0xbe48ed25	-0.19621713
132	0xbe6d130e	-0.231518
133	0xbcb309b1	-0.021855207
134	0x3df1863e	0.11793183
135	0xbd44ef13	-0.04807956
136	0xbe7a7ee4	-0.24462467
137	0xbe0a39c6	-0.13498601
138	0xb927cea9	-0.00016003348
139	0x3099bba3	1.1185545e-09
140	0xbb825e72	-0.003978544
141	0xbcbc0d41	-0.022955539
142	0x3e63e9e4	0.22257191
143	0xbe323407	-0.1740266
144	0x3d5cbfdd	0.053893913
145	0x3cbd4859	0.023105787
146	0x3e2dfa3c	0.16989988
147	0xbe1af4e6	-0.15132484
148	0xbe07f68a	-0.13277641
149	0x3dba7a2c	0.09105334
150	0xbe00f75a	-0.12594357
151	0x3e7f19cc	0.24912184
152	0xbb930d95	-0.004487703
153	0xbdfa682f	-0.12226903
154	0xba33a1d6	-0.00068524235
155	0xbd5ad3c2	-0.053424604
156	0xbda66ce7	-0.0812624
157	0xba65b6be	-0.00087628874
158	0xadd884cd	-2.4615332e-11
159	0x3c0ed6dc	0.008718219
160	0x3cf2c725	0.029635975
161	0xbb1b0bab	-0.0023658078
162	0x3a14450a	0.00056560396
163	0xbd9f7a7e	-0.077870354
164	0x3de75939	0.11296315
165	0xbe4ce356	-0.20008597
166	0x383c98b1	4.4964898e-05
167	0x3e3c4d02	0.18388751
168	0xbd7960dd	-0.06088339
169	0xbd76fbc4	-0.060298696
170	0x3e29365d	0.16524644
171	0x8136ed6b	-3.359846e-38
172	0xbd213912	-0.039361067
173	0x32758ef3	1.429338e-08
174	0xbe263256	-0.16230139
175	0xbe316fd1	-0.17327811
176	0x8cab16c3	-2.636042e-31
177	0xbe145e9a	-0.14489213
178	0xbdcce483	-0.10004523
179	0xbe21da62	-0.15805963
180	0xbd0d76c4	-0.03453709
181	0x3e16f285	0.14740951
182	0xbdff116c	-0.12454495
183	0xbd8d41a8	-0.068972886
184	0x3e6018b8	0.2188443
185	0xbe235b1f	-0.15952729
186	0x3e59a85d	0.21255632
187	0xbe41a736	-0.18911442
188	0xbe2eecf9	-0.17082585
189	0xbc82824f	-0.015931277
190	0xbdde01ac	-0.10840163
191	0xbd8a063f	-0.067394726
192	0xabbd661a	-1.3457597e-12
193	0x81a1f57d	-5.949432e-38
194	0x81918e0d	-5.346842e-38
195	0x018dcd5f	5.2089913e-38
196	0x0020cd0b	3.012291e-39
197	0xa3dd2d29	-2.3979994e-17
198	0xaaf336bf	-4.320346e-13
199	0x0056aeea	7.9606e-39
200	0x8100d5e6	-2.3663352e-38
201	0x01950bcd	5.475089e-38
202	0x342a1e50	1.5843511e-07
203	0x2bdb9a92	1.5603788e-12
204	0x80fedbcd	-2.3405066e-38
205	0x8b12a81f	-2.8245057e-32
206	0xae5ff778	-5.0924126e-11
207	0x88b048de	-1.0609746e-33
208	0xb007a1ca	-4.934263e-10
209	0x9d291739	-2.237897e-21
210	0xa4788b1d	-5.389426e-17
211	0x8a462b36	-9.54148e-33
212	0x01b25243	6.5504913e-38
213	0xadf99527	-2.837426e-11
214	0x3349ff13	4.7030948e-08
215	0xb39ba54d	-7.247818e-08
216	0x0a04b63b	6.3898426e-33
217	0xb0555850	-7.761445e-10
218	0x0122a9bc	2.987648e-38
219	0xa9e543a2	-1.0181375e-13
220	0xadead1c8	-2.6695882e-11
221	0x00c95c65	1.849208e-38
222	0x92d138a3	-1.3203716e-27
223	0x34dc1bea	4.0998503e-07
224	0x065a33d9	4.1039335e-35
225	0x0028fa63	3.763242e-39
226	0x810cbd05	-2.5849554e-38
227	0xb7063b1b	-8.000784e-06
228	0x2fdec859	4.052392e-10
229	0x817979ab	-4.582137e-38
230	0x00168ada	2.070191e-39
231	0xa937d2ef	-4.081712e-14
232	0x0195ec09	5.507265e-38
233	0x818b9db9	-5.1286857e-38
234	0xa66e9cfa	-8.278558e-16
235	0x801ee09b	-2.835638e-39
236	0xac552d6b	-3.0294333e-12
237	0x0191e265	5.358945e-38
238	0x006c2815	9.932612e-39
239	0x008f9176	1.3184658e-38
240	0x006fffca	1.02855e-38
241	0x80cf265e	-1.9023711e-38
242	0x01b21d8e	6.542928e-38
243	0x8066aad2	-9.4285e-39
244	0x2166197f	7.7960775e-19
245	0xa0224107	-1.374345e-19
246	0x00951d42	1.3693985e-38
247	0x1eb7af63	1.9448417e-20
248	0x35751bd4	9.131011e-07
249	0x00a7a964	1.5397294e-38
250	0x01ab64ac	6.2959936e-38
251	0x814aa8be	-3.7222607e-38
252	0x00977308	1.3908425e-38
253	0x30a97e66	1.2332293e-09
254	0x809dc042	-1.4487142e-38
255	0x00a9da35	1.5598477e-38

lin1.bias f4 [64]
0	0x3dab1ab1	0.083547
1	0x3dc5524a	0.09634836
2	0x3d1963c8	0.037448674
3	0xb85aeb7e	-5.219457e-05
4	0x3e3f64c7	0.18690787
5	0x3e2e2ffb	0.1701049
6	0x3df6b87d	0.12046907
7	0xbd48fd2c	-0.04906957
8	0x3d567a0c	0.052362487
9	0x3e25ffc7	0.16210853
10	0x3e786b23	0.2425962
11	0x3e309aec	0.17246598
12	0x3e98fc9e	0.29880232
13	0x3e8c45e3	0.2739707
14	0x3e346a5a	0.17618695
15	0x3df3c0ae	0.11901985
16	0xba647d75	-0.00087162043
17	0xb21db488	-9.179651e-09
18	0xbd13be5b	-0.03607021
19	0xb95e6ab7	-0.00021211324
20	0x3e9363c8	0.28787065
21	0xa0f6a53d	-4.1783367e-19
22	0xa9431729	-4.3318786e-14
23	0x3e290888	0.1650716
24	0x3d85d55f	0.06534838
25	0x3ce4422a	0.02786358
26	0x3e7fa641	0.24965765
27	0x3e71bf51	0.23608138
28	0x3e77763c	0.24166197
29	0x3e91e843	0.28497514
30	0xbafb5f21	-0.0019178131
31	0xba1ce904	-0.000598565
32	0xb734ef44	-1.0784544e-05
33	0xb886cd51	-6.427861e-05
34	0x8d0e0f65	-4.377566e-31
35	0xbd6e85ab	-0.058232944
36	0x3e2698d6	0.1626924
37	0x3e7228b3	0.23648338
38	0x3dc93250	0.098240495
39	0x3c804f7b	0.0156629
40	0xbb53f1b5	-0.0032340114
41	0x3e5ddeb9	0.21666993
42	0x3e67d1c7	0.22638617
43	0x3e258b2f	0.16166376
44	0x3e49bdbb	0.19701283
45	0x3e809123	0.2511073
46	0x3e48b2d6	0.1959947
47	0x3e3eac58	0.18620431
48	0x3e2338a0	0.1593957
49	0x3d2e2f5b	0.04252563
50	0x3e4290ae	0.19000503
51	0x3e4d8287	0.20069323
52	0xbbb79a85	-0.005603137
53	0x3e81070b	0.25200686
54	0x3e2cd516	0.16878161
55	0x3e639753	0.22225694
56	0x3b769555	0.003762563
57	0x3e19c046	0.15014753
58	0x3de3bcbd	0.11119983
59	0x3e5f2261	0.21790458
60	0x3d73833b	0.059451323
61	0xbd035fba	-0.032073714
62	0x3e0cda2c	0.13755101
63	0x969318d3	-2.3764797e-25

lin2.weight f4 [12, 64]
0	0xbe050ee6	-0.12993965
1	0xbe8d50a6	-0.27600592
2	0xbe46f61c	-0.19429821
3	0xb258076f	-1.2574545e-08
4	0xbe176b14	-0.14786941
5	0x3e6d7d35	0.23192294
6	0x3c56f788	0.0131205395
7	0x3e7c2467	0.24623261
8	0xbda43bea	-0.0801924
9	0xbe40e68f	-0.18837951
10	0xbcd64ede	-0.026160654
11	0xbe754462	-0.23951867
12	0x3ba8ac80	0.0051475167
13	0xbe878581	-0.26469043
14	0xbd065448	-0.03279522
15	0xbe86f81c	-0.26361167
16	0xb9993bf1	-0.00029227094
17	0x180c1e27	1.8109799e-24
18	0xbd1a77fa	-0.037712075
19	0xb7857e23	-1.5913572e-05
20	0xbe7bef17	-0.24602924
21	0x807ecf83	-1.1645714e-38
22	0x96639625	-1.8384291e-25
23	0xbdd272de	-0.102758154
24	0xbe54c6ac	-0.20778912
25	0xbe898e08	-0.26866174
26	0xbdec05ea	-0.115245655
27	0x3d7ceeb9	0.0617511
28	0xbe5c0f92	-0.21490315
29	0xbe577aa9	-0.21042885
30	0x3a419915	0.0007385177
31	0xb558a54b	-8.0706803e-07
32	0xa15c9010	-7.4729564e-19
33	0x39a4cb3e	0.00031431945
34	0x8e1abe24	-1.9073515e-30
35	0x3c6b49d4	0.014360864
36	0xbe61cb16	-0.22050127
37	0xbe84c791	-0.25933507
38	0xbe279044	-0.16363627
39	0x3cd7aacc	0.02632656
40	0xbbce9c3e	-0.0063052466
41	0xbe809ee5	-0.25121227
42	0x3be747a5	0.0070581012
43	0x3caa1683	0.020762688
44	0xbe9171cd	-0.28407136
45	0xbe821f35	-0.25414434
46	0x3d546e92	0.05186326
47	0xbdaa97b2	-0.08329715
48	0x3c8bb85d	0.017055685
49	0xbdf28f73	-0.11843767
50	0xbd69aa57	-0.057047214
51	0xbdd5898b	-0.10426625
52	0xbc062e9f	-0.008189826
53	0xbe81340c	-0.2523502
54	0xbe81ce2a	-0.25352603
55	0xbd0620e8	-0.032746226
56	0x3c81ee75	0.015860775
57	0xbe50eefc	-0.20403665
58	0xbe09d479	-0.13459958
59	0x3c83ebe8	0.0161037
60	0xbe85e6ab	-0.26152548
61	0x3ceb7102	0.02874041
62	0xbe5ca77e	-0.21548268
63	0xaca7c2f1	-4.7680683e-12
64	0xbe088cc7	-0.13334952
65	0xbe8dabd2	-0.2767015
66	0xbe8206d7	-0.25395843
67	0x338c9eb2	6.5481245e-08
68	0xbe3c5d50	-0.18394971
69	0x3e5ebfa2	0.2175279
70	0x3d125088	0.03572133
71	0x3e5f289f	0.2179284
72	0xbda4552b	-0.08024057
73	0xbe852e64	-0.26011956
74	0xbd396adf	-0.045267936
75	0xbe305b4c	-0.17222327
76	0x3a8ed43c	0.0010896991
77	0xbe86f1b3	-0.26356277
78	0x3c1af313	0.0094573675
79	0xbe837dd9	-0.25681952
80	0x39dcb7f4	0.00042098726
81	0x0f2a4994	8.395818e-30
82	0xbc98ecaa	-0.018667538
83	0x394e4850	0.0001967263
84	0xbe91afa9	-0.2845433
85	0x0363df30	6.696551e-37
86	0x1e7db79b	1.3431677e-20
87	0xbded292d	-0.11580119
88	0xbd90e7ca	-0.0707546
89	0xbe690a7a	-0.22757903
90	0xbdd1660d	-0.10224543
91	0x3d832bb6	0.064048216
92	0xbea2b7a0	-0.3178072
93	0xbeae642f	-0.3406081
94	0xbb64af97	-0.0034894699
95	0x3790b316	1.7249531e-05
96	0x24d5146d	9.240863e-17
97	0x3b25e913	0.0025315925
98	0x8dde2970	-1.3691782e-30
99	0xbd108a69	-0.03528825
100	0xbe095305	-0.13410576
101	0xbeb90ace	-0.36141056
102	0xbe41cc9a	-0.18925706
103	0xbc84e26d	-0.01622125
104	0x3b9d05d5	0.004791955
105	0xbe81824f	-0.2529473
106	0xbd682ce4	-0.056683436
107	0xbb7f44ce	-0.0038950923
108	0xbe8d39b2	-0.2758308
109	0xbe96d1ff	-0.2945709
110	0x3c8c66b2	0.017138813
111	0xbe07c14a	-0.13257328
112	0xbc703dac	-0.014663141
113	0x3d33dc91	0.04391152
114	0xbd243b28	-0.04009548
115	0xbe56f384	-0.20991331
116	0x3b512ab1	0.0031916315
117	0xbe8161a1	-0.25269797
118	0xbe7ff8fc	-0.24997324
119	0xbdbd4317	-0.09241312
120	0xbda18b38	-0.07887882
121	0xbdc32ac8	-0.09529644
122	0xbe2d5959	-0.16928615
123	0x3b737854	0.0037150579
124	0xbea5676f	-0.32305476
125	0xbc132c6d	-0.00898276
126	0xbe8c3591	-0.27384618
127	0x2e2eab11	3.9714957e-11
128	0x3c005de8	0.007834889
129	0xbd6d8f37	-0.05799791
130	0xbe40941b	-0.18806498
131	0xb2297bc3	-9.865235e-09
132	0x3bb820f0	0.005619161
133	0xbec75c25	-0.38937488
134	0xbe140fad	-0.14459105
135	0xbe336970	-0.1752069
136	0xbdbb3e7a	-0.09142776
137	0xbd18a5ab	-0.03726737
138	0xbdd17f85	-0.102294005
139	0xbe2d514a	-0.1692554
140	0xbdd4aad9	-0.10384149
141	0x3d115c3e	0.03548836
142	0xbe923575	-0.2855641
143	0xbd8faaf4	-0.070150286
144	0xb9dc88df	-0.00042063647
145	0xaf5f39e5	-2.03023e-10
146	0x3d38d9ab	0.04512946
147	0xbac938c8	-0.0015352005
148	0x3bd0a668	0.0063674934
149	0x800a4ca2	-9.45846e-40
150	0x17aa9639	1.1023914e-24
151	0xbdfc0b4f	-0.123068444
152	0xbe4cfff3	-0.20019512
153	0xbd25870b	-0.04041199
154	0xbe011470	-0.12605453
155	0xbd84ae59	-0.06478567
156	0xbba31aa6	-0.004977542
157	0x3ca3fb52	0.0200173
158	0xbc839173	-0.016060567
159	0x36667132	3.433856e-06
160	0x23c3e212	2.1237687e-17
161	0xbbb04e78	-0.005380448
162	0x8e161af5	-1.8501907e-30
163	0xbf34739a	-0.70488894
164	0xbe2c41cf	-0.16821979
165	0x3b66e00c	0.0035228757
166	0xbe693dde	-0.22777507
167	0xbea3566f	-0.3190188
168	0xbc089b06	-0.008337742
169	0xbdfd8bae	-0.123801574
170	0xbdf1d49c	-0.1180813
171	0xbe49714d	-0.19672127
172	0xbb9fd497	-0.0048776376
173	0xbc9fa799	-0.019489096
174	0xbe625b57	-0.22105156
175	0xbe838f12	-0.2569509
176	0xbe43c538	-0.19118202
177	0x3df5066a	0.11964114
178	0xbe9e4b02	-0.309166
179	0x3d72d936	0.05928918
180	0xbba56cf1	-0.005048387
181	0x3d070336	0.032962047
182	0x3cf77754	0.030208267
183	0xbe4c91f1	-0.19977547
184	0x3cdb02c9	0.026734727
185	0xbe5c6312	-0.21522167
186	0xbd839a14	-0.064258724
187	0xbe80a5b7	-0.2512643
188	0xbdd49883	-0.10380652
189	0xbd075e88	-0.033049136
190	0xbc390cc7	-0.01129455
191	0xb4125ee9	-1.3631838e-07
192	0xbe25d2d5	-0.16193707
193	0xbd8b9b84	-0.068167716
194	0xbdae9c57	-0.08525913
195	0xb0f26fb5	-1.7639566e-09
196	0xbdb64658	-0.08900136
197	0xbe119248	-0.14215958
198	0xbe4a30f7	-0.19745241
199	0x3d2853ac	0.04109542
200	0x3b9d1bb6	0.004794563
201	0xbe024e81	-0.1272526
202	0xbda0b8a3	-0.07847717
203	0xbe816237	-0.25270244
204	0xbe3143d9	-0.17311038
205	0xbe5a6be8	-0.21330225
206	0xbe162397	-0.14662014
207	0xbda0820c	-0.078373045
208	0xb7cc0176	-2.4319375e-05
209	0x1d1559b9	1.9766371e-21
210	0x3cc4ec57	0.024038477
211	0xb8f6979a	-0.00011758432
212	0xbe03cc70	-0.12870955
213	0x803a8cb5	-5.376935e-39
214	0x98219168	-2.0882174e-24
215	0xbe05700c	-0.13031024
216	0xbeae4565	-0.3403732
217	0xbd415fcf	-0.04721051
218	0xbdffacdd	-0.12484143
219	0xbeba2c93	-0.36362132
220	0xbdc02cb7	-0.09383529
221	0xbe283ce9	-0.16429485
222	0xbc790ae6	-0.015200352
223	0x36385cef	2.747223e-06
224	0x231b855b	8.430806e-18
225	0x3a9f135e	0.0012136509
226	0x8e2dd059	-2.1424212e-30
227	0xbe1eb6de	-0.15499446
228	0xbeb57434	-0.35440218
229	0xbdcd82c9	-0.10034711
230	0x3d7f676a	0.062354483
231	0x3c97a40c	0.01851084
232	0xba4dc28f	-0.0007849121
233	0xbe51e57b	-0.20497696
234	0xbdaaa2d0	-0.08331835
235	0xbd689618	-0.056783766
236	0xbdcbdd33	-0.099543
237	0xbd90245b	-0.07038184
238	0xbdcbe44b	-0.09955653
239	0x3d1da897	0.038490858
240	0xbe650db1	-0.22368504
241	0x3ca9b90c	0.02071812
242	0xbd2508c4	-0.040291563
243	0xbe4bb349	-0.1989261
244	0x3c68b2d3	0.014202791
245	0xbe0406ba	-0.12893191
246	0xbcec62e4	-0.028855748
247	0xbdf6cb22	-0.12050463
248	0xbb279180	-0.0025568902
249	0xbe614682	-0.21999553
250	0xbd20b657	-0.039236393
251	0xbe57f00b	-0.21087663
252	0xbe304699	-0.17214431
253	0xbd28ebcc	-0.0412405
254	0xbebf49e1	-0.37361053
255	0x30a55360	1.2029027e-09

lin2.bias f4 [12]
0	0xbede97c3	-0.4347516
1	0xbe972508	-0.2952044
2	0xbe2a7b28	-0.16648543
3	0xbf1075b2	-0.5642959
4	0xbec0e2a3	-0.3767291
5	0xbecb2fb2	-0.39684826
6	0xbf005e62	-0.50144017
7	0xbe9f2a1f	-0.31086823
8	0xbea93718	-0.33049846
9	0xbf193d99	-0.59859616
10	0xbea40930	-0.3203826
11	0xbec762d1	-0.38942578
